mlp_drug_predictor.pth (torch, 28505 bytes, 6 tensors)

fc1.weight f4 [64, 25]
00000000: b982 f1bd 080a 8ebd 41c2 5f3a 379e 343e
00000010: 24d8 b33d ed08 c73d e002 043e 5c54 5b3d
00000020: c285 2bbe 029a 9dbe 56ac 5a3e e5c6 5a3e
00000030: bb46 4dbe a34a e73b fbfb 893d 04de 05bf
00000040: ecd5 14bd 60e5 3f3e 89fc 2bbe dd2e dabe
00000050: 0a38 eabd ff71 d2be 3c08 883e 6253 89be
00000060: a3ba b53e 9588 693e 95b5 f9bd a9cb 023d
00000070: 3150 aa3e abf1 40bd 5bea 643d 68fa 883d
00000080: 271c cf3e 2b93 9a3b 3dd9 4e3d e9f3 1f3c
00000090: 616c b13e 9219 1f3e a7bf 9dbd e5e9 0ebf
000000a0: 779a 4ebb e33e 14be 58e7 eb3c 5935 163f
000000b0: 9471 fd3e c243 213e 64d1 b6be 7717 ea3e
000000c0: c80e a73d e329 26be 8157 85be 7374 b4bd
000000d0: 397a d0bd 70a4 0bbe ae5b 863e b2da c23e
000000e0: 4237 513b 4510 0cbe 4c1a e13d fe93 c9be
000000f0: 0511 743e 336b 5dbb d664 453d d07a 0fbe
00000100: 7ae8 e93d 5e10 3c3e e1ee b1bc 9c7c 9abd
00000110: 00f4 243c 5304 f43e b0e7 bcbc a549 07be
00000120: f116 d0be db72 86be 38da 8c3d 9afc 4c3e
00000130: b5dc 613d a2ea 793e d03e 5cbd 6386 d43b
00000140: db65 a0bd d87d 32bd 0029 f6bd 304e c03d
00000150: 5da4 24be e200 313e 8723 f3bd 0b4b a93d
00000160: 7516 15bf 9509 f0bd 1117 a2be fb0e efbd
00000170: e84e 943d 8e6a 113e 394d d7be 8f5b 3c3d
00000180: aa43 67bb f25d eb3e 430b 6bbe da04 febd
00000190: a95e 1b3d 9111 603c e690 793e 5667 31be
000001a0: 6ba8 4ebe 145f 31bd 1fcb 0e3c b2cc a63d
000001b0: 0fcc acbe 157f 2e3e 47b9 183e dcf8 19be
000001c0: dacc 443d f0b7 d7bd 5a00 6c3d bc83 983e
000001d0: daab 033e bb8e 22be 33bd 81bd 2dae 33bd
000001e0: 0fa5 84be 5e0f 6cbe c5c9 403f 2d0c 6e3e
000001f0: 2671 c53d 45ea 863e f001 923d f503 c93d
00000200: c86b 3a3e b6f4 243e adcd 4e3e 209d 01bc
00000210: a95c 0abe 60b2 c5ba a23a dd3d 9ce3 183e
00000220: e83e ecbe 5aeb 03be 2eac d13e cfb7 8b3d
00000230: 29a6 2a3f 1c0b 8b3e e113 3bbe 720e b0be
00000240: 3dc3 4a3e b188 49be e1df aabe b326 29be
00000250: f627 0f3e f3ea 313e 9b45 103d a48d b7bd
00000260: 7a21 d5be 6d4e 003d 2833 af3c 1056 0c3e
00000270: 1409 6fbe 42cb 26be 4d6b 403e 6a7d 8c3e
00000280: 6ef6 07be 2b6c 87be e676 9d3d 0506 33bd
00000290: 14d8 223e 5a63 32bc 2868 8fbd 6a3c a33d
000002a0: bc1f f8bc 95f1 a33e aaf0 913d 0f7a aabc
000002b0: 0dfc fc3d 39d0 da3e 9290 bbbd 0eba 693e
000002c0: 59b7 5ebe 9450 4bba e76b babd 7355 7abe
000002d0: 37e6 6b3d da10 3abd 9208 99be eab2 053e
000002e0: bcbd c4bc e2b7 ba3e ca11 cd3e ca33 1b3e
000002f0: c04f 39bd 8366 5abe ad8d f8be 12b1 8ebe
00000300: 91ab 453e d2de 3b3e 1da0 05be 6382 d4bd
00000310: 2785 133e e996 813e 8ac5 84be e1e8 d0bb
00000320: e05a 9fbe 6752 d6bd e120 a23e 17aa 00be
00000330: 2614 1a3d ae53 953e 2770 6bbe 7932 cebe
00000340: 6bcd 1fba 5b7b bf3e 4330 313b bb08 0dbe
00000350: fe9e 123c b409 263e 0379 873e 70ce ea3e
00000360: 095c d2be 07dc 593d 60ce ac3e b959 dd3c
00000370: 18e8 60bd 9c9e a0be d181 8fbe 9cc8 af3e
00000380: b5f7 d23d 9c60 a53d b5c5 903d 587e 1f3e
00000390: 8b27 19be 7e6e 6c3e 4d50 793e c6e5 7cbe
000003a0: 2110 213e 6238 d53d 0898 273e efdc c53d
000003b0: 871d 873e 5a23 69bd 51a5 1e3e 685a b73e
000003c0: d03e 34bc 0a98 c8bd 7032 ef3d 88e6 0abe
000003d0: b874 d3bc ec23 5a3d 1be9 8c3c 3e04 6b3d
000003e0: 061d f8bd ec5f fcbd 9821 813e c956 2fbe
000003f0: 6785 a33d bc75 e0bd f181 0a3e 140b 123e
-0.117925115 -0.06935507 0.0008535721 0.17638479 0.0878146 0.09718499 0.12891722 0.05354725
-0.16750243 -0.3078156 0.21354803 0.21364935 -0.20046513 0.007058458 0.067375146 -0.52291894
-0.036336824 0.18739843 -0.16795553 -0.4261388 -0.1143647 -0.41102597 0.26568782 -0.2682143
0.35493955 0.22806008 -0.12192837 0.031932507 0.33264306 -0.047105473 0.05588756 0.06688386
0.40451166 0.004717251 0.050500143 0.009762743 0.34653 0.15537098 -0.077025704 -0.55825645
-0.0031525174 -0.14477114 0.028796837 0.5867515 0.49500716 0.15748504 -0.35706627 0.45721027
0.08157116 -0.16226916 -0.26043323 -0.088112734 -0.10179562 -0.13636947 0.2624182 0.38057476
0.0031923805 -0.13678081 0.10991344 -0.39370722 0.23834617 -0.003378582 0.048191868 -0.14011693
0.114212945 0.18365619 -0.021720352 -0.075432986 0.01006794 0.4765955 -0.023059696 -0.13211687
-0.40642503 -0.26259503 0.068775594 0.20018235 0.055142123 0.24405912 -0.05377084 0.0064857467
-0.078319274 -0.043577045 -0.12019539 0.09389913 -0.16078325 0.17285493 -0.11872011 0.082662664
-0.5823739 -0.117205776 -0.31658223 -0.11672779 0.07241613 0.14200804 -0.42051104 0.045985755
-0.0035288134 0.45970112 -0.22953515 -0.12403269 0.03793207 0.013676063 0.2437168 -0.17324576
-0.20181434 -0.043303564 0.00871542 0.08144511 -0.33749434 0.17040665 0.14914428 -0.15036339
0.048046924 -0.1053313 0.057617523 0.29788005 0.12858525 -0.1587476 -0.06334915 -0.04386728
-0.2590718 -0.23052737 0.75307876 0.23246832 0.09640722 0.26350608 0.07129276 0.09815208
0.18205178 0.16108975 0.20195647 -0.007910997 -0.1351191 -0.0015083067 0.10802199 0.14930576
-0.46141744 -0.12882748 0.40951675 0.06822168 0.6665979 0.27156913 -0.18269302 -0.3438602
0.1980104 -0.1968105 -0.3337393 -0.16518669 0.13980088 0.17374782 0.03522263 -0.08962563
-0.41627103 0.031324793 0.021386698 0.13704705 -0.23343307 -0.16288474 0.18790932 0.27439433
-0.13277599 -0.26449713 0.07688694 -0.043706913 0.1590274 -0.010887945 -0.07002288 0.079705074
-0.03028857 0.3202025 0.07125981 -0.020810155 0.12352762 0.42736986 -0.09158434 0.2282488
-0.21749629 -0.00077558425 -0.09102612 -0.24446659 0.057592597 -0.045426227 -0.2988935 0.13056532
-0.024016254 0.36468416 0.40052634 0.15156475 -0.04524207 -0.21328168 -0.4854559 -0.2786947
0.19303729 0.18346718 -0.1304936 -0.10376432 0.14406262 0.25310448 -0.2593196 -0.0063754176
-0.3112402 -0.10464936 0.3166571 -0.12564884 0.03761687 0.29165405 -0.22992001 -0.40272883
-0.00060959783 0.373988 0.0027036823 -0.13772862 0.0089490395 0.16214639 0.26459512 0.45860624
-0.41085842 0.05318835 0.33751202 0.027020322 -0.05490884 -0.3137101 -0.2802873 0.3433274
0.103011526 0.080750674 0.070689596 0.1557554 -0.1495649 0.23089024 0.24347039 -0.24697027
0.15728809 0.10411145 0.16366589 0.0966128 0.26389715 -0.05691848 0.1549275 0.35811162
-0.011001304 -0.09794624 0.11679542 -0.13564503 -0.025812492 0.053256914 0.017200997 0.057377093
-0.12114911 -0.12322983 0.25220942 -0.1712295 0.07984429 -0.10959956 0.13526131 0.14262038

fc1.bias f4 [64]
00000000: 1c6d 303e a521 b53d 4d03 11bd ec1b 8fbd
00000010: fb42 a9bd 3b54 b1bd 1b0e 2d3d b131 593e
00000020: 7689 993d 57c8 973d 3d21 5d3e 3761 963d
00000030: 07f7 cc3d b6e6 133d e45b a7bd 1160 803e
00000040: 8325 bf3d 5317 b23d 81ee 35be 100c 923e
00000050: 9973 42be 44c2 df3d 133a 233e f9a2 593d
00000060: 5a6f 4d3e 8c4f ce3d e545 3abe d69c 4ebe
00000070: dc04 ab3d 2ad9 793e 3cff 78be 185b eabd
00000080: b06d 7cbd a202 84bd f03b 15bc 48c0 48be
00000090: bc14 433e 8d43 00bd 11e5 d23d 2b17 14be
000000a0: dff8 ad3c 182b 57bd 39a4 503d 4132 333e
000000b0: 9cf8 5b3e 77c4 b93d 3fd9 7f3d e285 163e
000000c0: bcbe 2fbe 547c 643d 70f9 4d3e 83f9 213e
000000d0: 471d 933e ccaf a03e 821e 63bc f045 1dbe
000000e0: 278e b53d 84e2 473d 12c3 d03b f66c 0c3e
000000f0: 73f2 63bd 6f0d e43d e806 673c ee57 61bd
0.17229122 0.08844308 -0.03540354 -0.069877476 -0.08264729 -0.08658644 0.04224978 0.21210362
0.07496922 0.07411259 0.2159471 0.07342761 0.10008054 0.036108695 -0.081718236 0.25073293
0.09333327 0.08695855 -0.17766763 0.28524828 -0.1898941 0.10925725 0.15940122 0.05313394
0.20062009 0.10073766 -0.18190725 -0.20177016 0.08350536 0.24399248 -0.24316114 -0.11443156
-0.061628044 -0.06445815 -0.0091085285 -0.196046 0.19050878 -0.03131442 0.10297597 -0.14461963
0.021236835 -0.05253133 0.050937865 0.17499639 0.21481556 0.09070676 0.06246304 0.1469951
-0.17162603 0.05578263 0.20114684 0.15817837 0.28733274 0.31384122 -0.013862254 -0.1535871
0.08865004 0.048800007 0.0063709104 0.1371344 -0.05565114 0.11135375 0.014100768 -0.055015497

fc2.weight f4 [64, 64]
00000000: 036f 3abe 2a7b a73d 2ff1 093f 1eea 1a3e
00000010: b140 39be 621d 90bd 2a10 0d3e 8441 bd3e
00000020: 8bc5 d7bd 26a2 cebc b9f3 f33d 2bd8 1d3e
00000030: 6b3c 493e 197f 2bbe 11a6 6bbd 1e49 62b9
00000040: a643 12bd b3d2 c13d 2cf3 2ebd 1fa9 f7bd
00000050: 2f74 01be 627b 0ebe fcff 253e d7d8 e13d
00000060: a1f4 a53c 5398 6a3e 325d 68be 3c77 2b3e
00000070: 9374 dc3d 56fc 1c3e caad 783d 8d8b 233d
00000080: 5729 2b3e 5aaa 9bbe cc60 913d d4e2 72be
00000090: d6ff 05be 6536 303d 50fa 52be 4e20 873c
000000a0: da1f 21be 181e d1bd d9fb bb3d c102 853d
000000b0: 3d37 2f3e a2a3 b9bd 6e06 20bb 6e53 213e
000000c0: b4ff ac3e 747f aabd a264 febe 15df c63d
000000d0: c117 db3d 30a6 d23d b7db a7bc 9512 fb3d
000000e0: afa9 c23c 2708 493e 849b 36be 44fd 083d
000000f0: 09ff 063e f19f fcbd 17a6 903e 3c40 27be
00000100: a148 be3b 8ad3 9b3d 42bf 99be fd9f 8e3d
00000110: 5473 bb3d 44b7 26be 1536 8bbd 6708 3f3e
00000120: c682 8c3d 34a9 443d e7d0 aabd 0865 273e
00000130: 9d15 9d3e 9974 9e3d a995 903d fe28 3fbe
00000140: 1d11 313d b69c 58bc 6d66 91bc bab9 20bd
00000150: b553 52bd e881 a83d 98c5 26bd 7616 cebd
00000160: 818b 00bd f3c9 483e a133 733d 128c c63d
00000170: 18db 08be 7f29 bcbc 4f84 d1bd fa9f 9ebe
00000180: 4b55 f43e af00 8bbe e2af ea3d 245d e13d
00000190: b9d7 c43d 9616 c3bd 745f 02be 3d99 8f3c
000001a0: 1a1a d73d f708 1e3d e1fc 9dbd cea0 103e
000001b0: 8590 e33d 4d3d d93e fbee 23be d038 57be
000001c0: 518a 91be b5ed 003d b24d 15bf 08c4 d93d
000001d0: b286 473d 3b7e 513e e1ac 97bd 6588 ff3c
000001e0: f716 123e 1c28 32bd 7f24 8cbe 7c31 56bd
000001f0: 1405 74bd 8749 043d 9eec b03d 7520 43be
00000200: 45e8 453e 2f62 87bd 4226 cabe 3dac 7d3d
00000210: 4dd6 e03c 602f cf3b 2944 f73d dee1 39be
00000220: 0048 f53c 3ec2 ffbc 0eb6 753d b013 3c3e
00000230: b55a ee3d d9af 8b3d fecb d8bc 133a 413c
00000240: fe65 78bc 9c8b 563d 65c6 8d3a c2bb 44bd
00000250: 529c cdbd f335 cd3d 2edd b23c 99fc c1bd
00000260: d44a 62bb 986d e23d 8fb5 063e 1182 61be
00000270: a9cc 573e 788a 9b3d de85 babd a794 b43d
00000280: 7e77 113e bd61 b2bd d8e8 1abe 5913 5ebd
00000290: f0ad 523d d943 12bb 5427 723d 9dc0 893d
000002a0: 1a4f a7bd f168 173b 4d94 b13d 651e 023e
000002b0: 7837 1abd 3eb1 7e3e 9958 26bd 0f3d 81be
000002c0: cb66 4ebd 69ad 4abe 3abf 63bd 4645 e83d
000002d0: a2a8 533c adb2 083e d4e7 223e 493a 26be
000002e0: e28b 3d3d 5de5 8cbd 4cc0 b6bd 3a31 04bd
000002f0: 9ada 103d 98ec 063d 2d17 9bbe 47cb 3d3d
00000300: b996 243d 20c4 b63e 70ba eabd 969a da3d
00000310: b5f2 963d b25a 413d 4ec9 a3bd 79db fd3d
00000320: 8c03 e73e dfa7 5fbd 322c 613e aa90 8abd
00000330: 9ec4 fb3d da7d 9e3d ede0 02be 178d ab3d
00000340: 2d8f 6bbe 9fcf 3b3e 00a9 a7bd 9636 cb3d
00000350: 2ac2 3dbd 5071 0c3e 9358 cabc 8d2e 05bd
00000360: 7a73 6abc bbd7 17bd f739 0a3e b90f a03c
00000370: 87a2 7b3d 4582 a8bd 5709 16be 7778 143c
00000380: 555d 7abd dedc 83bd 2081 1c3e fde3 b6ba
00000390: eb5a 03bd 62a4 aabe 918f abbd 9d72 83bb
000003a0: cb20 cb3c 5703 f7bb 9d2e bbbe 5ec5 c0bd
000003b0: 64f7 efbb 7120 0c3e 45a8 20bc 9473 9d3d
000003c0: 1fc6 943e 9f0c eabd 62df 893d 8be9 d9bc
000003d0: 5ee0 523e c7d8 973e cd3b 0a3e 16c6 c33d
000003e0: 9e62 893c 37f4 33be a1b2 6f3e ad93 09be
000003f0: ed36 12be 4183 813d a7d7 49be 8533 d83b
-0.1820641 0.081777886 0.5388364 0.15128371 -0.18091084 -0.07036854 0.13775697 0.36964047
-0.10535725 -0.025223803 0.11911721 0.15414493 0.19651954 -0.16747703 -0.05753142 -0.00021580278
-0.035709046 0.09464016 -0.042712376 -0.12092804 -0.12641977 -0.13914254 0.16210932 0.11027687
0.02025825 0.2290967 -0.22691801 0.16744703 0.10764422 0.15330634 0.060712613 0.039928008
0.16714989 -0.30403405 0.07098541 -0.2371934 -0.13085875 0.043020625 -0.20603299 0.016494896
-0.15734807 -0.10210818 0.091788955 0.06494666 0.17110915 -0.090644136 -0.0024417895 0.15754482
0.33788836 -0.08325091 -0.49686152 0.09710518 0.1069789 0.10285604 -0.02049051 0.122594036
0.023762552 0.19632016 -0.17832762 0.033444658 0.13183226 -0.12335194 0.28251716 -0.16333097
0.005806998 0.07608707 -0.3002873 0.06964109 0.091528565 -0.16280848 -0.06797425 0.18655549
0.068608806 0.048012927 -0.08340626 0.16347134 0.30680552 0.07737083 0.070597954 -0.18667981
0.04322921 -0.013220957 -0.017749036 -0.039239623 -0.05134936 0.08227903 -0.040715784 -0.10062878
-0.03138304 0.19608288 0.05937541 0.09694685 -0.13364828 -0.022969006 -0.10230314 -0.30981427
0.47721323 -0.2714896 0.11459328 0.11004093 0.09611458 -0.09525792 -0.12731725 0.017529124
0.10503025 0.03858277 -0.077142484 0.14123842 0.11111549 0.4242958 -0.16009133 -0.21017766
-0.2842584 0.031476695 -0.5832168 0.10633093 0.04871244 0.2045831 -0.07406021 0.031192968
0.14266573 -0.043495283 -0.27371594 -0.052293286 -0.059575155 0.032296684 0.08638881 -0.1905535
0.19326885 -0.06610524 -0.39482313 0.061931837 0.027445937 0.006322786 0.120735474 -0.18152568
0.029941559 -0.031220552 0.059988074 0.18366885 0.11638395 0.0682065 -0.026464459 0.011793631
-0.015161036 0.052379236 0.0010816572 -0.048030622 -0.10039581 0.100200556 0.021833982 -0.09472007
-0.0034529464 0.110560596 0.13155197 -0.22022273 0.21074165 0.0759477 -0.091075644 0.08817416
0.14205739 -0.08710048 -0.15127885 -0.05421767 0.05143541 -0.0022318272 0.059119537 0.06726191
-0.08169384 0.0023103321 0.08670864 0.12706907 -0.037650555 0.248723 -0.040611837 -0.25241897
-0.050391 -0.19792713 -0.05560229 0.11341338 0.012918623 0.1334941 0.15908748 -0.16233172
0.04627598 -0.06879685 -0.089233965 -0.03227351 0.035364725 0.032940477 -0.3029112 0.04633644
0.040182803 0.35696507 -0.114613414 0.10674016 0.073705114 0.047205634 -0.0799738 0.12395377
0.45119894 -0.054603454 0.21989515 -0.06765874 0.12293361 0.07738848 -0.12781115 0.0837652
-0.23003836 0.1834092 -0.08186531 0.09922521 -0.046327747 0.137151 -0.024700439 -0.032515097
-0.014309758 -0.03707097 0.13498674 0.019538747 0.061434295 -0.08227972 -0.14652 0.009061924
-0.061124165 -0.064386114 0.15283632 -0.0013953444 -0.032069128 -0.3332854 -0.083769925 -0.0040114657
0.02479591 -0.00753824 -0.36559 -0.09412645 -0.0073231924 0.1368425 -0.009805744 0.076880604
0.29057404 -0.114281885 0.0673206 -0.02660062 0.20593402 0.29657575 0.13499375 0.09559266
0.016770657 -0.1757363 0.23407985 -0.1343524 -0.14278765 0.06323863 -0.19711171 0.0065979385

fc2.bias f4 [64]
00000000: 0db1 6fbd f910 95bd 756f de3d a57e eb3d
00000010: 5b5a 33bc 1bf1 313e 67a7 233c 984f cf3d
00000020: 8b72 7b3c fdc5 9ebd 91de f33c 8954 83bc
00000030: ad42 be3c dfeb d53d aeb9 e23c 346f 053e
00000040: 8f16 533d 7a7d 00be 8fa0 82bd 3a9a b53d
00000050: afe6 993b e7ba 58bc 6be3 bbbd b602 f7bb
00000060: 6abd 9f3d 7f16 0b3e 42ce 8e3d 4f67 61bc
00000070: a907 063e e171 13bc b860 beba d01e 003e
00000080: f40d b1bd 384f 823d de13 f5bd 9433 dcbc
00000090: 0e0e 963d 48d0 113e 326b acbd 5a16 d0bd
000000a0: 4d14 583c 5420 2f3e a19c a1bd ebf5 333d
000000b0: cd73 16bd 38c1 adbd 52df a8bd 0204 043d
000000c0: 3749 05be a650 c13d d4df 1cbc 951d 28be
000000d0: 3861 d3bd 98de 773d 0948 ea3d 0a78 13bd
000000e0: 055c aa3c 25cb f53b 486d a63d 95c2 0d3e
000000f0: 82a0 513e 7164 b5bd 040e 063e 75c7 e13a
-0.05851846 -0.07278628 0.108611025 0.11498765 -0.010946835 0.1737713 0.009988642 0.10122603
0.015347133 -0.07752607 0.029769214 -0.01603152 0.023225153 0.104453795 0.02767643 0.13030702
0.051535185 -0.12547866 -0.0637828 0.08867307 0.004696689 -0.013228155 -0.09174236 -0.007538165
0.077998 0.135828 0.06972934 -0.013757541 0.1308886 -0.008999319 -0.0014524674 0.12511754
-0.086452395 0.06362766 -0.1196668 -0.026880063 0.073268995 0.14239609 -0.084188834 -0.10160513
0.013188434 0.17102176 -0.07891203 0.043935698 -0.03673153 -0.08484119 -0.0824572 0.032230385
-0.1301621 0.094392106 -0.009574849 -0.16417535 -0.103212774 0.060515016 0.11439521 -0.03600315
0.020795831 0.0075010234 0.081263125 0.13843758 0.20471385 -0.08857048 0.13091284 0.001722558

fc3.weight f4 [8, 64]
00000000: 348b 4ebe 0e74 d63d 96ff 173e c544 09be
00000010: 52bd d3bd 7e68 bebe 47f4 39be a73e 3bbe
00000020: 2f35 33bd 052c 5b3d 4999 383e fc1d 18bd
00000030: 578d 7cbe f135 353e 7ed0 7c3c 1f7c a8bd
00000040: b071 493e db75 9d3c b8c6 49bc ddd7 0ebf
00000050: a5a1 03bd ec28 5e3c 576e 9ebd 38ce bebe
00000060: 8e50 833e 1609 3f3e e001 04bf 74f9 983e
00000070: 8059 f1bd f2eb c1be afbe 0c3e 09bd 893e
00000080: 09af 7f3e 7888 f93d 67d3 793e 9b98 103d
00000090: 5cf0 823d 24f7 dbbd 6d19 6abd c67e 783c
000000a0: 97f4 0d3c 39f9 53be b713 9e3e e8f8 f63d
000000b0: a169 42be b805 153e 9c18 193e 6b10 153e
000000c0: d04b 63be 0b5c 6a3e 9db3 79bd bd4d 633e
000000d0: 31f2 f53e 5ec1 e03d 5a47 5d3d 1f89 633e
000000e0: f858 bdbe c177 a8bd 3740 e3bc 2401 c33d
000000f0: 3383 27be dcf2 2fbd ef1c 76be 6a99 60be
00000100: 56c7 0fbd 5876 1fbd 2366 2b3e 0a2e 22be
00000110: 1e26 3cbe dc86 b03d bb89 3dbe bff0 d1bd
00000120: 4525 853c 59da c1be 4df0 153e 4a6e 65be
00000130: 3011 43be 66d0 723e 7bf4 3b3b ab0e 2c3e
00000140: 1cc8 36be f0d4 59be e091 a03e 5923 123e
00000150: 3dd6 9f3c 4e47 84be 5957 4fbd e27c 13be
00000160: 8ac6 163d 4e61 683e e36c da3b 8f9b 8abe
00000170: f648 ad3c c361 503e f835 b0bd 1f72 343e
00000180: 297a 2fbd 5dd4 163e 9ce9 dcbd 150c 1f3e
00000190: e918 763d 42ac c73d dce5 253e 2f04 be3d
000001a0: a7fa 213e 3656 a83d 43da 76be 76a1 313e
000001b0: 58eb 0cbe 360d dfbd 99d3 593e 0e31 21be
000001c0: 54c2 93bc 43d0 d63d 0e01 833d b2fc 8ebe
000001d0: 2f65 b1be ad71 afbd 83b3 1f3e 4c8e 0a3e
000001e0: e3ec 29bd 2bb2 473e 11ca 533e 223e b33c
000001f0: 45b3 653d ae53 8cbb 58cc 7e3c e0e9 8f3d
00000200: 17bf 94be 8529 6a3e 0c76 073e d12b 31bd
00000210: fc63 0ebe 1fd9 43be 1fea ddbd 811b 61be
00000220: bd58 06be dabb c0bd 7eea 5d3d 65d3 963c
00000230: 1a4e 203e 7650 59bc de33 113d 03bf 8e3d
00000240: a456 d23e 5e11 1f3e 9bcb b63e c726 eabe
00000250: 9f33 f33c 2b67 4ebe 0a22 aabc 5b90 c03e
00000260: 7286 1dbd daa5 21be eea6 ffbb 8cb6 c83e
00000270: 48f6 f1be d9e6 37be 23e3 953e 99e4 04bd
00000280: b5f9 ddbd 0e27 7b3d d6b3 a03e 1fd6 843e
00000290: 6586 99bb 538e 1f3e 8459 9b3e 150e ed3d
000002a0: 6e1e 273e 1e13 4bbd 41d4 a73e 4960 e83d
000002b0: d9b2 9f3e 73b6 0a3e da81 40be ed6f 1a3e
000002c0: 11fa e1bd ad11 b33d 0ba9 48be 5f4a 90bc
000002d0: 818f 0f3d 7db9 3a3d d9f3 33be 6a9f 293c
000002e0: dc2b 213e 7c52 7fbd caaf 8bbe 60d1 2d3e
000002f0: 520a 9d3e 9e4e 373e 33ca 77be 4619 0fbe
00000300: 8d45 793d 01cf f3bc 2e1b 143e 511e 193e
00000310: 53ec 753e 5271 ef3d 3b05 153e fc9a 15bd
00000320: 0b2e 2c3e 271d 9d3e e4b2 3ebe 66ff 42be
00000330: c096 1bbe 6b5c 763c 870b b03e de9e afbc
00000340: 8fa3 99be 7677 043d 46d8 22be 258b 2d3e
00000350: 95dd 8a3d a78f 05be 6979 ccbc 6598 7a3c
00000360: dfb9 543e e725 fc3d a9a8 b43e 7ba2 933e
00000370: c682 9abc a72a a93d a992 67be bc9e 21be
00000380: 1feb 01bd 5c4f 263d 6f73 f8bd 2026 5fbe
00000390: 005d a73d 36b5 97bc 6d03 393e 5268 35bd
000003a0: 0dc8 8d3d 2655 573d 483d 4c3d 0998 ef3d
000003b0: c1ab fabe 3ed1 a5be 1e96 25bf 983c 683e
000003c0: a8dc a1be 3193 c4bd 5253 823d 4038 453e
000003d0: 2868 b03e afa8 893d 2b5e 5bbe 2551 233d
000003e0: 46d2 c7bd 2fda c93d 8d44 61bd 2277 5bbe
000003f0: 1c88 74bc 29cd 4fbe 5e73 70be be63 c1bc
-0.2017029 0.104713544 0.14843592 -0.1340514 -0.10338844 -0.37189096 -0.1815959 -0.18285619
-0.04375189 0.053508777 0.18027224 -0.03713797 -0.24663292 0.17696358 0.015430568 -0.08226799
0.19672275 0.019221237 -0.012315445 -0.5579813 -0.032136578 0.013559561 -0.077358894 -0.37266707
0.25647396 0.1865581 -0.5156536 0.29877818 -0.11784649 -0.37875324 0.13744615 0.26902035
0.24969114 0.121842325 0.2439705 0.035301786 0.06393501 -0.10740498 -0.057153154 0.015166944
0.008664272 -0.2070054 0.30874416 0.12059194 -0.18985607 0.14552963 0.14950794 0.14557044
-0.22196889 0.22886674 -0.06096231 0.22197624 0.4803634 0.10974382 0.054023124 0.22220276
-0.3698194 -0.08225966 -0.027740581 0.09521702 -0.16358642 -0.042956218 -0.24034475 -0.21933523
-0.03510221 -0.03893122 0.16738181 -0.15837875 -0.18373916 0.086194724 -0.18509571 -0.10250997
0.016253123 -0.378619 0.14642449 -0.22405353 -0.19049525 0.2371231 0.0028679657 0.1680247
-0.17849773 -0.21272635 0.31361294 0.14271297 0.019511336 -0.2583565 -0.05062041 -0.14403108
0.036810435 0.22693369 0.0066658123 -0.27071807 0.021152955 0.20349793 -0.08604044 0.17621659
-0.04284111 0.14729448 -0.10786745 0.15531953 0.06008235 0.097496524 0.16200966 0.09278142
0.15818273 0.082195684 -0.24106698 0.17346749 -0.13761652 -0.10891192 0.21272124 -0.15741369
-0.018036999 0.104889415 0.063966855 -0.27927166 -0.3464751 -0.08566604 0.15595822 0.13530844
-0.04148568 0.1950156 0.20682551 0.021880213 0.056079168 -0.0042824363 0.015551649 0.0702703
-0.2905204 0.22867401 0.13228625 -0.043254677 -0.13905329 -0.19125794 -0.10835671 -0.21983148
-0.13119788 -0.0941083 0.054178707 0.018411348 0.15654793 -0.013263812 0.035449855 0.06970026
0.41081727 0.15533969 0.35702214 -0.4573271 0.0296877 -0.20156543 -0.020768184 0.37610134
-0.038458295 -0.15785924 -0.007801882 0.39201772 -0.4725821 -0.17959155 0.29274854 -0.03244457
-0.108386435 0.061316542 0.31387204 0.2594461 -0.0046852105 0.15581636 0.30341733 0.115749516
0.16320202 -0.04957878 0.32779124 0.1134649 0.31191137 0.13546161 -0.18799534 0.15081759
-0.110340245 0.08743606 -0.19595735 -0.017613588 0.035048965 0.04558705 -0.17573489 0.010352949
0.15739387 -0.062334523 -0.27282554 0.16974401 0.30671936 0.17901084 -0.24198227 -0.13974485
0.060857344 -0.029761793 0.14463493 0.14952971 0.24015932 0.11691536 0.14552777 -0.036524758
0.16814439 0.30686304 -0.18622929 -0.1904274 -0.15194225 0.015036683 0.34383795 -0.021438058
-0.30007598 0.03234049 -0.15902814 0.1694761 0.06780545 -0.1304308 -0.024960237 0.015295123
0.20774029 0.12311917 0.35284927 0.288349 -0.018861186 0.082600884 -0.2261454 -0.15783209
-0.03171837 0.040603027 -0.12131392 -0.21791887 0.08172035 -0.018519025 0.18067713 -0.04428894
0.06922922 0.05257144 0.04986313 0.1169892 -0.48959163 -0.32386202 -0.64682186 0.22679365
-0.3161366 -0.09598387 0.06363548 0.19259739 0.34454465 0.06721627 -0.21422641 0.039872307
-0.09756903 0.09856068 -0.054997016 -0.21432164 -0.014925029 -0.20293106 -0.23481509 -0.023607131

fc3.bias f4 [8]
00000000: 9495 d83d a157 923d 02e4 2fbd 15ec 173c
00000010: 507c e9bd a841 5abd aa93 a4bc d902 9c3d
0.10575405 0.0714562 -0.042942055 0.009272595 -0.11400664 -0.05328527 -0.020089943 0.07617731
