mlp_drug_predictor.pth (torch, 28505 bytes, 6 tensors)

fc1.weight f4 [64, 25]
000000 6f 7a e0 3d 0e b4 03 3e a5 3b 64 3e 63 cc e6 bd
       0.10960852 0.12861654 0.22288378 -0.112694524
000010 25 2e c3 3d 12 f2 70 3e 99 5c 3b be ec 1d ab 3e
       0.09530286 0.23529842 -0.18297042 0.33421266
000020 cb e4 8b 3e 3c c6 1b 3e d7 09 e6 3d 9c ab 84 3e
       0.27322993 0.15212339 0.112323456 0.25912178
000030 f7 85 be be d6 e5 6d 3e 69 27 79 bd 0d 97 18 3f
       -0.37211582 0.23232207 -0.0608286 0.59605485
000040 40 8e a6 3d 45 13 a2 be 44 d5 ac be 8c 42 2b 3d
       0.08132601 -0.31655326 -0.3375646 0.04181151
000050 1a 8c 19 bd 12 e9 df be e9 b1 55 be 79 cf 36 bd
       -0.037487127 -0.43732506 -0.20868649 -0.044631455
000060 f2 0c 32 bd c0 7a df bd a3 41 07 3e 47 4e ad 3e
       -0.043469377 -0.109120846 0.13208632 0.33848783
000070 dd 55 81 3d 11 21 d5 bd b6 50 e3 3d be e1 f2 bc
       0.06315205 -0.104066975 0.11099379 -0.029648658
000080 7d 21 14 3e 47 4c c5 3d 95 09 27 3e 01 62 4d 3e
       0.144659 0.096336894 0.16312249 0.20056917
000090 8b b6 a4 be a2 84 a4 be 53 bb 7a 3e 34 65 05 be
       -0.3217052 -0.3213244 0.24485521 -0.13026887
0000a0 81 26 e1 3e c4 d1 06 3e ab 41 58 bd 97 c9 c2 3d
       0.4397469 0.13165957 -0.052797 0.095111065
0000b0 69 81 50 be 56 25 83 be 89 cc 1e be be 07 8f 3e
       -0.20361866 -0.25614423 -0.15507711 0.27935594
0000c0 29 6e df 3e e3 34 0d be 07 c2 91 bd 56 52 b7 bd
       0.43638733 -0.13789706 -0.07117086 -0.08951251
0000d0 c3 1d 8a 3e 05 a7 ac 3d ee 02 c5 3c 58 19 62 be
       0.2697583 0.08430294 0.024049249 -0.2207998
0000e0 54 1e ad 3e 4b 14 64 3d fa 5e 5a be 74 a1 26 3e
       0.338122 0.055683415 -0.21325293 0.16272527
0000f0 0c c4 c7 3d 0c 70 2f 3a fc 07 49 3d 49 83 87 be
       0.0975419 0.00066924165 0.04907988 -0.2646735
000100 89 26 b6 3b 6f 44 63 bd 1a 6c 2c be 5a 4d 5e 3d
       0.005558793 -0.055485185 -0.16838112 0.054272987
000110 2c 6e 45 be f2 51 19 be 4b f7 aa bc 06 2f 83 3e
       -0.19280308 -0.14972666 -0.020869872 0.25621814
000120 59 98 da 3d 79 dd cf be 45 d5 6e 3e 79 9d 20 be
       0.10673589 -0.40598658 0.23323543 -0.15685071
000130 b8 9f e0 bc 9e e3 d3 bd 8d 3d 27 bd 53 1e e7 3c
       -0.02741991 -0.10346149 -0.040830184 0.028212702
000140 c1 6d 84 bd 3e 83 c9 bd 50 d0 96 be 12 a5 11 3e
       -0.064662464 -0.098394856 -0.29455805 0.14223126
000150 ec 1b 8a 3d c0 ec 49 3e 41 1c 8f bd 78 c1 6f be
       0.06743607 0.19719219 -0.06987811 -0.23413646
000160 48 63 64 3d 6b db 1e be 3f 56 dc 3e 12 30 31 3e
       0.055758744 -0.15513389 0.4303455 0.17303494
000170 4b 05 32 3e b3 20 91 be 3c 17 f9 3d 9d 56 a9 3d
       0.17384832 -0.2834526 0.12162635 0.08268473
000180 32 28 2b 3e 34 5d 39 be 49 b1 b8 3e 52 93 70 3e
       0.16714552 -0.1810196 0.36072758 0.23493698
000190 0a d6 fe bd 4e 20 a0 bd 33 a6 e7 3b bd b7 4d 3e
       -0.124431685 -0.07818662 0.007069373 0.20089622
0001a0 b1 1f 9f 3d 62 d6 04 3e e4 5f 16 3e 7a 21 71 3c
       0.077697165 0.12972406 0.14685017 0.014717454
0001b0 36 13 3c be e5 1b 74 be 75 5d 77 3e d8 09 c0 3e
       -0.18366703 -0.23838766 0.24156745 0.3750751
0001c0 46 d4 7a bd 04 ef 5d be d5 af 74 3e 83 72 1f be
       -0.061237596 -0.21673208 0.238952 -0.15571027
0001d0 0a 3f e3 bc 14 c0 9c 3e bb 0b fc 3e e4 f5 cb be
       -0.02774002 0.30615294 0.492277 -0.39836037
0001e0 03 01 76 be f9 97 e8 bd 1a 9a 6f 3d 49 87 01 3e
       -0.24023823 -0.113571115 0.058496572 0.12649263
0001f0 11 1f 36 3e bc 27 20 be 70 da 5f 3d fa e2 1a be
       0.17785288 -0.15640157 0.054651678 -0.15125647
000200 22 12 b6 3d 0b 79 8a bc 52 db 14 3e fb c6 ba 3d
       0.08890177 -0.01690342 0.14536789 0.09119984
000210 e1 fa 97 bd 14 f4 32 3d 57 32 e6 3d db dc 4f 3e
       -0.07420898 0.043689802 0.1124007 0.20299093
000220 e0 d5 56 3e 99 6e af 3d f2 ef f5 3d a9 b4 20 bd
       0.20980024 0.08566017 0.120086566 -0.03923479
000230 74 9d 11 3f c4 07 8b be 2c eb 01 be db 0a 7e 3d
       0.5688088 -0.27154362 -0.12687367 0.06202207
000240 e5 05 96 bc 16 6c 68 3e 5f d6 a1 bc 51 79 93 3c
       -0.018313358 0.22697482 -0.01975554 0.018002184
000250 0d 44 77 3e 04 ef 02 3e 38 45 26 be 7b ae a1 bd
       0.24147053 0.1278649 -0.16237342 -0.07894608
000260 a7 7b 3a 3e 12 28 71 be 5f 28 83 bd 5b f0 7d be
       0.18211232 -0.23550442 -0.064041846 -0.2479872
000270 f9 56 4a bd 32 94 b4 bd 7f 76 c5 3d eb 91 b0 3d
       -0.04939935 -0.088173285 0.09641742 0.08621582
000280 0e 88 62 3e 58 02 17 3e 9f ad 12 3e 6a 24 66 3e
       0.22122213 0.14746988 0.14324044 0.22474828
000290 3a 90 ca 3e 09 7a 0a 3f 66 96 66 be de e4 dc be
       0.3956316 0.5409246 -0.2251831 -0.43143362
0002a0 61 43 80 be 86 ae 42 bd 37 2e ca 3e a4 b3 c6 3e
       -0.25051406 -0.04752972 0.39488384 0.3880893
0002b0 de 74 d0 3c 2e 3c 2a 3d 80 1e 65 3e 7c a7 0b be
       0.025446352 0.041561298 0.22374916 -0.13638109
0002c0 15 88 e6 3d 06 e1 8b bc 8c c3 c0 bd e7 86 2d 3e
       0.11256424 -0.017075073 -0.094122976 0.16945992
0002d0 a0 4c 47 3e 4d ec e6 bc 1c 7a 69 be 7c e2 71 be
       0.19462824 -0.028188849 -0.22800487 -0.23621553
0002e0 52 c2 18 3e 9d 95 e9 3d 53 05 bb bd f4 40 8c 3e
       0.14917877 0.114054896 -0.09131875 0.27393305
0002f0 25 ce f1 be b8 a5 59 3e 81 fb 6a 3d 59 d7 54 3e
       -0.47227588 0.21254623 0.05736876 0.20785274
000300 67 a5 97 be 7c fe f1 3d a8 71 8e 3e f8 0c 12 be
       -0.2961838 0.11816117 0.27821088 -0.1426276
000310 58 da f7 bd 90 d4 98 be 39 c5 da be 19 06 a1 bd
       -0.12102193 -0.29849672 -0.42728594 -0.07862491
000320 6f fa 55 be ab cd 90 bd df 6f 60 3e 36 1d d0 bc
       -0.20896314 -0.07070478 0.21917675 -0.025404554
000330 3b 45 28 be ab be fc 3c f3 79 81 3e b2 95 12 be
       -0.1643266 0.030852636 0.25288352 -0.14314917
000340 15 3c 0c bc ee b9 23 3e b0 00 72 3e f9 28 d7 bd
       -0.008559247 0.15988895 0.23633075 -0.10505862
000350 0a 14 29 be a1 9e 9c bd d7 a7 30 be 1c bd 70 3d
       -0.1651155 -0.076474436 -0.17251526 0.0587741
000360 1d 94 cb 3e 24 54 f2 3d db 59 f0 be b9 95 8c bb
       0.3976144 0.11832455 -0.46943554 -0.0042903093
000370 d3 7e 8e 3e d3 b9 49 3d 3d 81 5c 3e 1a 79 ca 3c
       0.27831134 0.04924948 0.21533675 0.024715949
000380 3b df 51 3e ac 0c 45 be 1a 04 0a bd 38 c0 e8 3d
       0.20495312 -0.19243115 -0.033695318 0.11364788
000390 67 c3 da 3d 65 08 e9 bc 15 35 30 be 4f 39 8e bd
       0.10681801 -0.028446386 -0.17207749 -0.069445245
0003a0 f9 08 2e 3e fa f7 70 3e 61 2d 8d be 46 6d 96 3e
       0.1699561 0.23532096 -0.27573684 0.29380244
0003b0 2c d1 f5 be 93 81 29 3e 51 a0 a4 be eb 2d b3 3d
       -0.48011148 0.16553335 -0.32153562 0.087489925
0003c0 0d 22 7b be e9 aa 3c 3e f5 7a 18 ba d7 ee d1 bd
       -0.24524708 0.18424572 -0.0005816662 -0.10250633
0003d0 87 a2 a3 bd 24 d4 1d bf cd d7 18 3f af 0a bd 3d
       -0.07989984 -0.61651826 0.59704286 0.09230553
0003e0 2e 58 86 bd f0 ac 58 bd 24 2b 00 be 3b 6b 61 3e
       -0.06559788 -0.0528993 -0.12516457 0.22013561
0003f0 d1 ea 3a be d2 bd 0d be 55 60 32 be 68 49 13 3e
       -0.18253638 -0.13841942 -0.1741956 0.14383471

fc1.bias f4 [64]
000000 d7 b7 82 be a5 79 a2 bb 04 a1 b3 3c 11 47 13 3e
       -0.25530884 -0.004958349 0.021927364 0.14382578
000010 b4 b0 a4 3e 02 fc 80 3e 3f a9 a5 3d 9e 44 37 be
       0.32166064 0.25192267 0.08088922 -0.17897269
000020 a5 17 44 3e 97 ca 44 3e e8 79 26 be 67 a8 72 3d
       0.19149645 0.19217907 -0.16257441 0.059242632
000030 22 56 ff bd ba b6 71 3e a2 37 50 bc 20 4c 1c 3e
       -0.124676004 0.23604861 -0.012708576 0.15263414
000040 9c 75 b1 3d a2 5d 12 be 6a e9 88 be 9a 2d e5 bd
       0.0866501 -0.1429353 -0.2674058 -0.111903384
000050 7a 3d 5a be e7 89 35 3d cb e7 43 3e 8c 01 9f bc
       -0.21312514 0.044320967 0.19131391 -0.019409917
000060 ef 68 81 3d 2f ce 00 be 81 18 ad bd a5 76 aa 3c
       0.063188426 -0.12578653 -0.084519394 0.020808527
000070 ba ca ad bd a6 23 cb 3c f7 03 4b 3e a9 5b 62 3e
       -0.08485933 0.024797272 0.19825731 0.22105278
000080 e3 7f 8b bd 1d 78 fa bc 94 bf 9f 3c 2b 74 be 3c
       -0.06811502 -0.030574853 0.019500531 0.023248753
000090 6f 4d 0d be ad f0 ff bd 46 4f 9e 3d e3 4d 5e be
       -0.1379907 -0.12497077 0.07729964 -0.21709399
0000a0 72 63 19 bd de fc 0a 3e 34 32 03 be 48 f8 3d be
       -0.037448354 0.13573024 -0.1281212 -0.18551743
0000b0 83 55 af 3d 39 14 e4 bc 0a 66 0e be 27 22 4b be
       0.08561232 -0.027841674 -0.13906112 -0.19837247
0000c0 8f 76 b5 bd d9 9e 98 bd 25 4f 3c 3d a3 e9 aa 3c
       -0.08860504 -0.07452173 0.045973916 0.02086336
0000d0 dc af 8d bd 5c 84 03 3e 59 de b2 bd bc 24 c9 3d
       -0.06918308 0.1284346 -0.08733816 0.0982146
0000e0 d2 aa 38 bd 12 1b 44 3e f1 23 45 be 82 2a 82 3d
       -0.045084782 0.19150952 -0.19251992 0.06355764
0000f0 85 f7 80 3e 54 55 c6 3d 52 a9 a6 3d c3 07 af 3d
       0.25188842 0.09684244 0.08137764 0.08546402

fc2.weight f4 [64, 64]
000000 e0 f1 48 3d 4f 26 20 3e 95 af 1a 3e 30 9f 32 3d
       0.049058795 0.15639614 0.15106042 0.043608844
000010 b9 7c 8b 3c e8 ca 5a 3d ce f3 a1 3d fd a1 3a be
       0.017027246 0.053416163 0.0790783 -0.18225856
000020 f6 cf 29 3d bf 63 96 3d 99 c0 15 bd 9c 81 64 bd
       0.041458093 0.07343244 -0.03656063 -0.055787668
000030 07 0b 8d be 87 64 1c bb 36 f7 d4 3e cd e9 d2 3d
       -0.27547476 -0.002386363 0.41594857 0.102985
000040 00 0e 00 be 9e 60 1d 3d 7c 79 46 3e b4 d6 d8 be
       -0.1250534 0.03842222 0.1938228 -0.42351305
000050 61 bb b6 bd 18 46 a1 be 99 91 c7 3d a5 c7 12 3e
       -0.089224584 -0.3149879 0.097445674 0.14333971
000060 3c 3e ec bc ce 76 6a 3e 9f 51 25 be 85 57 41 3d
       -0.02883827 0.22896883 -0.16144417 0.047202606
000070 5a 0b ea be ab 83 c2 be 37 03 c5 bd b3 6e b4 be
       -0.45711786 -0.3799108 -0.09619754 -0.35240707
000080 26 c5 9f 3d a3 53 ab 3d 5a 0f ea 3d 14 59 61 3d
       0.07801275 0.08365562 0.11428709 0.055016592
000090 91 42 8a be 72 7d a2 bd f7 cf 0a bd 33 31 93 3e
       -0.2700391 -0.07934083 -0.033889737 0.28748474
0000a0 ef 29 c6 bd e8 21 9a 3e cd bb 08 3e d5 11 0b 3e
       -0.09675967 0.30103993 0.1335289 0.13581021
0000b0 09 ad e2 3d 6c 91 52 be 95 3f 4f 3d ee 43 ce 3d
       0.1106816 -0.20563287 0.050597746 0.1007155
0000c0 1e 77 87 3d ce f9 aa 3d 1d 0a 8e 3e bd f7 8c bd
       0.06614517 0.08348428 0.2774209 -0.0688319
0000d0 6a dc 50 3d 13 d7 d2 bc bf 27 c3 bd 34 00 f1 be
       0.050991453 -0.025737321 -0.09529065 -0.47070467
0000e0 15 8b 95 be e3 24 4a bd 11 2b 68 bd eb 32 0a bd
       -0.29207674 -0.049351584 -0.056681696 -0.033739965
0000f0 c1 98 80 3e a3 f3 79 be 26 7c e7 be 5d 14 ce 3c
       0.25116542 -0.24409346 -0.45211905 0.025156194
000100 24 e4 43 be ec e4 43 3d fd 0d e4 bc b3 68 b5 3d
       -0.19129997 0.04782574 -0.027838701 0.088578604
000110 92 e5 91 3d 06 e6 c4 3d 07 4a c0 bc 04 48 cb bc
       0.07123865 0.09614186 -0.023472799 -0.024814613
000120 ce 7a 0e 3e b0 91 22 3b a4 21 b3 bd 18 d9 43 be
       0.13914034 0.0024806075 -0.08746651 -0.19125783
000130 77 c0 96 bc d1 00 52 3e 10 4a 8c 3d 23 05 01 3e
       -0.018402321 0.20508124 0.06850064 0.12599616
000140 bd 70 10 3e 6b a7 62 be da e7 aa bb c0 83 89 be
       0.14105506 -0.22134177 -0.005215627 -0.2685833
000150 0f 11 34 be 1c 4c 9e be 93 30 00 3e fe b5 1a 3e
       -0.17584632 -0.30917442 0.1251853 0.15108487
000160 86 2e 5f 3d 32 00 31 3e 2f 34 c9 3d 31 59 f7 3d
       0.054487728 0.17285231 0.09824406 0.12077559
000170 0b ee 5a 3d a9 9a da 3d 03 42 0e be e0 ef 95 3e
       0.05344967 0.1067403 -0.13892369 0.29284573
000180 28 ff 83 3d da ca d8 3d d2 d4 4b be c7 94 54 3e
       0.064451516 0.10585566 -0.19905403 0.20759879
000190 02 61 a8 bd 4c 44 86 bd 15 b6 49 3d 31 8f 23 be
       -0.08221628 -0.06555995 0.049245913 -0.15972592
0001a0 40 0d d4 3d 8c 13 8a 3d 62 dc 09 be f4 fb cf bd
       0.1035409 0.067420095 -0.13462976 -0.10155478
0001b0 91 0f cb 3d 48 3c c4 3c 7f 06 81 bd 8f 33 91 bd
       0.099150784 0.023954526 -0.06300067 -0.07089912
0001c0 d3 75 97 3d 14 99 24 3e b4 63 81 3e a0 9c 12 bf
       0.0739552 0.1607402 0.2527138 -0.5727024
0001d0 67 e0 16 3e db 22 44 3d e9 04 34 be 7a 62 dd 3d
       0.1473404 0.047884803 -0.17579998 0.108097985
0001e0 ca 9e 16 3d 12 26 88 3d b9 43 a6 3c 6d fb c6 3d
       0.036772527 0.06647886 0.020295965 0.097159244
0001f0 fa cc 8b 3e ee 25 9a 3e 1f d8 a8 3e 1e 50 4e 3e
       0.27304822 0.30107063 0.32977387 0.2014775
000200 18 3c cd 3d c2 34 8c bc 06 b0 c1 be 29 c3 97 3d
       0.100212276 -0.017115 -0.37829608 0.07410271
000210 4d 24 f3 be 72 23 3c 3e 2e 67 80 3e 64 ee 1b bd
       -0.47488633 0.18372896 0.2507872 -0.038069144
000220 8f a1 7a be b3 4f 88 bd 21 7b 3a 3e d1 4d 08 3e
       -0.24475692 -0.066558264 0.18211032 0.13310935
000230 1e 81 08 be e1 12 60 3e 54 d7 85 3c 0c 05 9a bd
       -0.13330504 0.21882202 0.016338028 -0.07520494
000240 47 2f dc 3d 39 6d 82 3c 8d c2 28 3e 2c ba 85 3d
       0.10751205 0.015921222 0.16480465 0.0652965
000250 90 e6 33 be 08 28 be 3d 4a 81 b1 3c b6 49 7b bd
       -0.17568421 0.09284979 0.021668095 -0.061349593
000260 29 c8 c8 be 83 67 f6 3d c0 20 b8 3d 58 a8 dd bb
       -0.3921521 0.12031462 0.089906216 -0.006764453
000270 3c 11 b0 be 96 71 62 3c 80 3d d4 3d 28 3e 2d be
       -0.3438815 0.013821026 0.10363293 -0.16918242
000280 2f 12 81 3e 59 71 61 3e 67 ea ec 3d 84 59 ce be
       0.25209185 0.22015895 0.11568146 -0.4030267
000290 4a 13 8a be 00 48 60 bd 72 2a 8c bd ae 07 87 3e
       -0.2696784 -0.054756165 -0.06844033 0.26373047
0002a0 f4 76 f6 bc 5b c4 e3 3d 8e da 69 3e 90 64 d8 bd
       -0.030086018 0.11121436 0.22837278 -0.10566056
0002b0 ac 02 92 be cd a0 e4 be e5 39 02 3e 4b 93 96 bc
       -0.28517663 -0.4465393 0.12717398 -0.018380782
0002c0 ec ff fb bd 94 e6 2a bf 6f 7d e4 bd 7b 8b 98 be
       -0.123046726 -0.66758084 -0.11156737 -0.29793915
0002d0 69 eb 00 3c e0 4c 32 be 62 fd 44 be 98 f0 a8 3e
       0.007868626 -0.17412138 -0.19237283 0.32996058
0002e0 47 ab 8a bd aa cb bf be b4 d0 c5 bd dc 7a 41 3e
       -0.0677095 -0.3746007 -0.096589476 0.18894523
0002f0 b1 c8 f9 be a6 11 53 3e 9b 71 04 bf cd 03 3f be
       -0.48785928 0.20612201 -0.5173585 -0.18653794
000300 8c c8 fd bb c4 72 9e 3d 83 c6 b5 3d c8 b3 2a bd
       -0.0077448543 0.077367336 0.08875754 -0.04167536
000310 73 f5 ea 3d f3 6c be bd 09 9b 34 3d 28 f2 58 3d
       0.11472597 -0.09298124 0.044093166 0.052965313
000320 47 ae d6 bd 6f 6b 92 3d fd 7f 75 bd eb 91 cc bd
       -0.104824595 0.071493976 -0.059936512 -0.09988769
000330 c2 fe fb bd 85 4a bc bc 70 75 d6 bc 1c 88 8f 3d
       -0.123044506 -0.022984752 -0.026179045 0.07008383
000340 e7 d6 00 3c bf b9 b8 bc d4 5b d6 3c 8e 48 e4 3d
       0.007863737 -0.022549508 0.026166834 0.11146651
000350 c0 db fc bd c0 69 7b bb bc 0e 43 3d 08 ef 87 bd
       -0.123466015 -0.0038362592 0.047621474 -0.066373885
000360 47 4b a1 bd c8 c2 d2 bc 08 fe 6d bd 87 21 0d 3d
       -0.07875686 -0.025727645 -0.05810359 0.034455802
000370 77 17 ba bd f8 3a 41 3d 76 62 74 bd ba f8 f1 3d
       -0.09086507 0.047175378 -0.059664212 0.11815019
000380 28 88 85 3c fe 86 97 bd 4c ad 32 bd c0 3b cf bd
       0.016300276 -0.073987946 -0.0436223 -0.10118818
000390 f9 81 a8 bd 3c a1 d6 3d d7 d4 a9 bd 0c 0b a3 3d
       -0.08227915 0.10479972 -0.08292549 0.079610914
0003a0 a5 43 22 bd 64 5e aa bd 38 72 4e bb 29 cb 88 3d
       -0.039615292 -0.08318785 -0.0031501185 0.06679375
0003b0 87 d5 b6 bd 7a a7 ef 3d 2d 8c b8 3c 82 2a 99 bc
       -0.08927446 0.117018655 0.022527779 -0.018697027
0003c0 c7 c7 31 bd 84 ba e7 bd 18 7f ee bd 50 f0 30 3d
       -0.043403413 -0.11314872 -0.11645335 0.04319793
0003d0 0f 53 be bd bc a7 31 3d a3 47 c1 3d 4c 37 06 3d
       -0.09293186 0.043372855 0.09437492 0.03276758
0003e0 53 98 89 ba 5e d5 eb bd 3c cf 77 3d 8f 98 cf bd
       -0.0010497667 -0.11515306 0.06050037 -0.1013652
0003f0 7e fa 39 3d 34 30 5c 3d 74 07 37 bd ce 55 60 bb
       0.045404904 0.053756908 -0.044684842 -0.003423083

fc2.bias f4 [64]
000000 cc 2d 94 3d ce 48 cf 3d 6d 90 ef 3c c4 c8 6a bd
       0.072352976 0.10121308 0.029243672 -0.05732037
000010 ac 34 21 3b be 9b 2e 3d 06 92 de 3d ce cd ac 3d
       0.0024598045 0.042628996 0.108676955 0.08437692
000020 a2 3c 9a 3d dd cf 53 3d 3c af 1e bd 8e 38 e1 3c
       0.07531096 0.051711906 -0.038741335 0.027492788
000030 c9 e2 c2 3d 58 c5 b5 3d 2b 8f 9d bd a8 78 64 3c
       0.09515912 0.08875531 -0.07693323 0.013944782
000040 a5 fb 54 3e 6d e1 92 39 85 6d b0 3d c4 bc 02 be
       0.2079912 0.00028015245 0.08614639 -0.12767321
000050 c4 bb 66 bd 40 b6 b4 3d 15 14 55 3d 33 ff d5 3d
       -0.05633141 0.08823824 0.052021105 0.10449066
000060 f2 c3 04 3e 50 f6 be bd 82 1c 18 3e 5c de 73 ba
       0.12965372 -0.09324324 0.14854625 -0.00093028485
000070 24 e8 90 bc a3 31 aa bd 38 19 a8 3d d8 4f a6 bc
       -0.017688818 -0.08310249 0.08207935 -0.020301744
000080 f3 be 1c 3d 3b 09 1d 3d 0c ca 2c 3d 8c 55 d0 bc
       0.03826804 0.03833888 0.042184874 -0.025431417
000090 33 1d 43 3e b5 e1 31 bd b8 54 97 3d 9d b9 86 bd
       0.19054107 -0.04342814 0.07389206 -0.06578372
0000a0 d0 c5 b7 ba d8 6e 7e bd 3c 31 61 3d a9 c7 bb bd
       -0.0014020745 -0.062117428 0.054978594 -0.091689415
0000b0 a7 74 ef 3c 40 c2 44 bd fc c7 54 bd 24 ab d5 3b
       0.029230429 -0.048036814 -0.051948532 0.0065206457
0000c0 3d c1 1b bd 8d f9 1f be 93 10 ad bc 4e cf 38 bd
       -0.038026083 -0.1562254 -0.021126067 -0.045119576
0000d0 63 b4 de 3d c0 25 1a bd 55 bf fa bc 55 7d da bd
       0.1087425 -0.037633657 -0.030608812 -0.106684364
0000e0 c1 14 0a 3c a3 13 c3 3d 46 d8 63 3e d2 cc e1 3d
       0.0084278 0.0952523 0.2225047 0.110253945
0000f0 cc e6 2e 3d b6 66 47 3e ec fb 95 3d 3d d8 ae 3d
       0.042700574 0.19472775 0.07323441 0.08537338

fc3.weight f4 [8, 64]
000000 49 2c 69 3c 6f 56 e7 bd 0a 11 0c 3f 76 7d bf 3d
       0.01423175 -0.11295783 0.547135 0.09350102
000010 2a 2b 22 3d da 83 92 3d 48 e8 9b 3e 97 00 39 3e
       0.039591946 0.07154055 0.30450654 0.18066631
000020 47 13 a1 3c bb cd 9d bd 68 d9 34 3e 87 c6 3f bc
       0.019662512 -0.077052556 0.17661059 -0.011705047
000030 a9 f9 b4 be d9 8b 9e 3d 8b b3 fb 3d 55 72 d8 bd
       -0.35346726 0.077415176 0.122901045 -0.10568682
000040 9c 25 ba be d1 d9 1d be 10 2b 96 bd 35 33 9e be
       -0.3635682 -0.15415122 -0.07332432 -0.30898443
000050 7d c2 47 3e f5 2b c7 3e 69 1c 2d 3e e9 de 11 bf
       0.19507785 0.38900724 0.16905369 -0.5698076
000060 10 5c 56 3e aa 4c 47 be b4 eb fe be f1 1b 3e 3e
       0.20933557 -0.19462839 -0.49789202 0.18565346
000070 31 00 b4 3d a9 e7 13 be da 30 a7 be 5e fc c8 3d
       0.08789099 -0.1444384 -0.32654458 0.0981376
000080 ff 0c 4c 3d 38 47 a2 bd f8 c6 a7 bd 06 37 1f be
       0.04981708 -0.0792374 -0.08192247 -0.15548334
000090 ba 04 cf bd 44 7c ab 3d cb 5e 0f 3e cc 2b f4 bb
       -0.101083234 0.08373311 0.14001004 -0.00745151
0000a0 4a 02 06 be 0d d6 03 be d9 d3 3e bd 35 fe 2d bd
       -0.1308681 -0.12874623 -0.046588752 -0.04247876
0000b0 91 0e f0 3b a5 d3 00 be 38 96 c7 3d 0e 17 65 3e
       0.007325955 -0.12580736 0.09745449 0.22372076
0000c0 04 57 db 3c 8c c7 a8 3d 3f fa 08 3e 5a 77 3d be
       0.02677489 0.082411855 0.13376711 -0.1850256
0000d0 06 4a 0e 3e 93 b0 1d be 51 b2 29 3e 81 fd 4f 3e
       0.13895425 -0.15399389 0.16571929 0.20311548
0000e0 cc 5f 44 bc 52 0d 05 3f 71 0d 0f 3e 4d 3a 43 bd
       -0.01198573 0.5197345 0.13969971 -0.04766302
0000f0 c8 cd f2 bd 4b 17 45 3e e9 4c 2c be 58 46 95 3e
       -0.11855656 0.19247167 -0.16826214 0.2915523
000100 93 74 45 be 6e 93 15 3e 91 0d 71 3e c7 24 05 bd
       -0.19282751 0.14607021 0.23540331 -0.032505777
000110 50 8f a3 be 4e ab 8c 3e 4f 6d c9 bd 02 49 3c 3e
       -0.31945276 0.27474445 -0.09835302 0.18387225
000120 e2 fb db bd 14 82 f5 bc 68 14 ba 3d 2b 2c b1 3d
       -0.10741402 -0.029969253 0.090859234 0.086510025
000130 1c e1 8e 3e ea aa 1c bd 8e e4 48 3e f3 a0 63 be
       0.2790612 -0.038248934 0.19618437 -0.22229366
000140 5c 3d 13 3f 6c 61 74 bc 01 98 4a bd cb 46 77 3e
       0.575155 -0.014915805 -0.04946137 0.24148099
000150 b1 44 c0 3d 8a c2 bb 3e be 75 81 3c e9 5e 1b 3d
       0.09388102 0.3667186 0.015803214 0.03793231
000160 2d a3 29 bc 2f 3c 81 be c9 eb e3 3d 0c 0d b1 3d
       -0.010353846 -0.2524123 0.11128957 0.086450666
000170 1c 64 b7 be a1 3b 3d bd b1 e6 2a bf cf d6 76 be
       -0.35818565 -0.046199445 -0.6675826 -0.2410538
000180 a8 68 05 3e e2 00 80 be df fc 53 be 3f 6b d5 be
       0.13028204 -0.25000674 -0.20701931 -0.41683385
000190 f8 e4 96 3e 54 d0 d7 3d d2 a6 9f bd 80 b8 d0 3c
       0.29471564 0.10537782 -0.0779549 0.025478601
0001a0 7f 7f 72 be 7b 91 9c bd a7 e0 51 bd 3d c9 54 3d
       -0.23681448 -0.07644936 -0.051239636 0.05194973
0001b0 05 6e 10 be 35 93 00 bf 8d a6 7a 3e 9f 96 ef 3d
       -0.14104469 -0.5022462 0.24477597 0.116986506
0001c0 ed f4 3a be 22 89 04 3e cb 1b bc bd 17 52 66 3e
       -0.18257494 0.12942937 -0.091849886 0.22492252
0001d0 bc d8 b5 3d 11 a3 1e 3e 54 6a e4 be be 7d 85 be
       0.088792294 0.15491892 -0.44612372 -0.26072496
0001e0 44 6a 1f be 2a 66 af 3e f1 59 26 3e 60 37 15 3d
       -0.15567881 0.34257632 0.16245247 0.036429763
0001f0 5e 83 a2 bd f7 d6 60 bc 7a 83 43 3e 4d 74 3b bb
       -0.079352126 -0.013723127 0.19093123 -0.0028603256
000200 72 bb 8d 3e 24 b1 01 be 83 b4 0d 3d 8c 92 a7 bd
       0.27682072 -0.1266523 0.034595978 -0.081822485
000210 d3 1d e9 bd cb e3 35 3e 5e 4d 26 3e 17 99 2f 3e
       -0.11382642 0.17762677 0.1624045 0.17148243
000220 1e 02 69 3a b0 e3 ae bd 3c 8f 17 bc 04 6e a2 3e
       0.000888856 -0.08539522 -0.009250458 0.3172456
000230 8e 47 e3 bc a8 2b 2e be d3 93 7c 3e 46 c0 04 be
       -0.02774408 -0.17008841 0.24665765 -0.12963971
000240 5b 33 2a 3e 39 09 8d be 78 ef cb 3c e8 a4 9c be
       0.16621153 -0.275461 0.024894461 -0.30594563
000250 46 af cc bd ce 3c 91 3e d9 f9 0f 3e 27 40 a3 be
       -0.09994368 0.28366703 0.14060153 -0.31884882
000260 ac dc f5 3d ef 6c 3c bc 32 4c 9f be 28 57 f1 3e
       0.120049804 -0.011500581 -0.3111282 0.47136807
000270 c9 20 cd 3d ef 24 9f bd 62 2f c6 3e f9 8a b6 bd
       0.10016019 -0.077707164 0.38708025 -0.08913226
000280 97 4e 04 3c 0c 90 95 bd 68 1c 23 3e 1f af 0a be
       0.008075378 -0.073028654 0.15928805 -0.13543366
000290 7c 91 00 bd 6d 8a 18 be 77 61 dc 3d f4 54 e6 bd
       -0.031388745 -0.14896555 0.107607774 -0.11246672
0002a0 77 fa 67 3c 55 77 4f bd c7 c7 a4 be 9f 79 32 bd
       0.014158837 -0.050650913 -0.32183668 -0.04357302
0002b0 bc c8 2e be 66 83 79 be 72 30 91 3e 49 cc ea bd
       -0.17068762 -0.24366531 0.28357273 -0.114647456
0002c0 80 43 9a 39 a5 b8 ad 3e 67 06 c9 bd 55 3e b5 3c
       0.0002942346 0.33929935 -0.09815674 0.022124449
0002d0 11 ad 27 3e 6a a9 96 3d 79 20 99 be c0 fa e4 be
       0.16374613 0.07356532 -0.29907587 -0.44722557
0002e0 5e ae 8d bd 69 16 81 be 82 28 23 3d 59 c6 d1 3d
       -0.069180235 -0.2521241 0.039833553 0.1024291
0002f0 88 45 40 bd 25 e0 91 bd b0 f5 ad 3e 98 12 9d bd
       -0.04694131 -0.0712283 0.33976507 -0.07669562
000300 02 87 07 bd b3 66 52 3e 9e de 3f be c5 21 83 3d
       -0.033087738 0.20546989 -0.18737265 0.064029254
000310 ae 35 8f bc 4e 25 68 3e 07 39 6a 3e 24 72 a1 bd
       -0.017481651 0.2267048 0.22873317 -0.07883099
000320 60 95 86 bd 8a e1 f9 3d b5 2c 01 be ca 94 37 be
       -0.0657146 0.12201221 -0.1261471 -0.17927852
000330 7a d6 81 3e 00 b0 67 3d d3 c2 b9 be 70 08 33 3d
       0.25358945 0.05656433 -0.36281452 0.04370922
000340 42 e7 ec be 01 df 8f bd af 56 b9 3e 9a 0a cb be
       -0.46270186 -0.070249565 0.36198947 -0.39656526
000350 9c 0e 2e bc 9b 3f 18 bf 6c 8b 88 3d a6 9c 14 bd
       -0.0106236 -0.59472054 0.066672176 -0.036282204
000360 59 f3 22 be 56 ea 00 be b4 5e a0 3d 32 d4 d3 bd
       -0.15913142 -0.12589392 0.07830563 -0.103432074
000370 80 ce 1a 3e 55 19 54 bd 3f 74 60 3e 5c 3f 35 be
       0.15117836 -0.05178197 0.21919344 -0.17699951
000380 14 65 32 3e 3b 80 e5 3d e9 c2 2d 3e 87 78 f6 ba
       0.1742137 0.11206099 0.16968884 -0.001880423
000390 c6 6b a3 3d 6f f0 39 3d 06 f7 35 be 82 fd ed 3d
       0.079795405 0.04539531 -0.17770013 0.116206184
0003a0 74 51 a8 be 3e bf bb 3c 10 d7 e9 bd 01 17 0c be
       -0.32874644 0.02291834 -0.11417973 -0.1368065
0003b0 6b 2d 1f 3c 63 cb 8b be 09 f8 61 3c e7 9c 5d be
       0.009715418 -0.2730361 0.013792046 -0.21641885
0003c0 95 63 86 3e 58 90 6b be 44 da b2 bd 06 41 10 be
       0.2624785 -0.23004282 -0.08733037 -0.14087304
0003d0 4a 07 e7 3d 5e c7 96 bd 69 24 8a be 2a cb b1 3e
       0.11280687 -0.07362245 -0.26980904 0.34725314
0003e0 bf 40 a6 3e db 83 e6 bd 31 f4 8d 3e 70 cc 56 3d
       0.32471272 -0.11255618 0.27725366 0.05244106
0003f0 96 97 59 bd a9 1c 41 3e 26 bc e7 3c 1c c0 2e bd
       -0.05312308 0.18858589 0.028287958 -0.04266368

fc3.bias f4 [8]
000000 b0 a1 4f bd 26 25 00 3e 5d 46 c3 3d 95 e4 c9 3d
       -0.050691307 0.12514171 0.09534905 0.09858052
000010 ad 87 83 bc 99 b7 9f 3d 45 04 d6 3d ad b0 13 3d
       -0.016055906 0.0779869 0.10450033 0.036057163
