model.pth (torch, 28541 bytes, 6 tensors)

weight f4 [64, 23]
00000000: b9a4 4c3c 1029 1e3e b1ee 2e3e 18ce 033e
00000010: de07 e63d 97bb 393e 08ab c73d c553 d43d
00000020: ce82 a9bd 81b5 913e 3884 4d3d 8f70 a3be
00000030: dac8 353e 2132 f4bd 2b27 68bc 7f58 643d
00000040: dca1 973e 392d d03d 623b 043d 534f 683e
00000050: b389 68bd bc77 d1be 5208 683e a440 6cbd
00000060: 1fcc 34be b6c2 9e3e 8c79 1d3e 265b 7fbe
00000070: 5c58 20be 5628 55be cd03 8d3c d93d 53bd
00000080: e406 c3be f3e2 a5be 874d 0e3e d0cf 613d
00000090: 50fb 3b3e e5ec cf3d 1c43 c53d d84d be3e
000000a0: 3b1c 44be 4e62 0cbd aa64 0dbe 4148 1a3f
000000b0: 162e 163f 98df cdbd f476 88bd 2f46 3a3d
000000c0: 86f0 3abe 3a34 19be 56b4 adbb 7656 d03d
000000d0: 9834 f43d 51e3 88bd 6fd2 893d c493 ec3d
000000e0: f2ef 80bd 81e4 853e b8db 6dbe 7c0d 023d
000000f0: a90e aabe cdf0 5f3e 3584 c53e 303e aabe
00000100: 3262 4e3e 2775 5fbd f317 1cbe ea64 743e
00000110: 105a 303e 3940 c2be 2561 8d3d 22ad 3b3e
00000120: 752f 7d3e d4ae 19bd 8e0a 16be 8678 913e
00000130: dd9d df3d dd82 643e 4ab1 00bc 8519 a93e
00000140: efb1 703e ab77 8dbe 4a92 ad3e 6af3 13be
00000150: 8452 61bd 71fb a73e 8be9 0cbf e1d9 b6be
00000160: 4540 203e 75d2 7a3e da51 46be 265c 8ebd
00000170: 8499 513e f61b d23d c444 673c 7a05 6a3d
00000180: 2e32 2abe fd5b d83c f6bb 0b3e 7e6e 6bbd
00000190: 63c8 7cbe 27df d2bd 7360 b1be 51e0 2ebe
000001a0: 9dda 9abd e1d7 a4be 81b3 f23d bade 60be
000001b0: 5dc0 663e 41c5 f83e 9962 1d3e c3f7 a8bd
000001c0: 27c2 cebd 1fe7 76be ff93 52bd 29c8 1ebd
000001d0: 11b2 ea3d f6f6 5c3d 228f 29be 5bc1 c1bd
000001e0: c791 a0bd 9c15 563e ecce b83d 892a 0f3e
000001f0: a95c 59bc ebfa 82be b778 d03e e9ee 97bd
00000200: 1041 12be ec94 763e 6929 46be 52b7 003f
00000210: df25 603e 2de0 15be 2843 ca3e 5ba5 aa3d
00000220: e94d 013e ee42 53be 0863 f0bd f44f c33d
00000230: 9798 3a3e cc71 4f3e ebdf 413e bcc0 9dbe
00000240: 9600 8abe e6bb ecbd 657f 3ebe 3c3c cdbd
00000250: 9d6b 68be 7612 5dbe de57 013e 0c1e c3be
00000260: 1812 4abd 0c37 763e f4e4 09bd 5400 96be
00000270: 1b2a c2bd a416 cb3e caae 1d3e fd01 01be
00000280: cc7f 9cbe 9775 c8be adb5 8a3d f10a 9d3e
00000290: 9616 393e 2134 ebbd f5a6 8c3e 324a 37be
000002a0: 76db 133e 5f9f 613d 8883 2bbf 0b98 1abd
000002b0: b3c3 aa3e 2c96 3c3e 2789 153f 7ccb ab3e
000002c0: 0474 0fbe a31f cf3e 8a60 b93e f5f7 efbe
000002d0: a355 793e e77b 89be f1f3 d93d 1ebf 0cbe
000002e0: 0c2f 02be 3586 a23d d9b7 d8bd d918 c93d
000002f0: c21c 4c3c 1b83 523c e62d 17be deb6 abbc
00000300: 1bbf 11be f141 973e 8769 33bc 7a85 f5be
00000310: 8770 903d 9ba5 d43d 3034 b3bd 0f49 0ebe
00000320: 8e58 b2be 4d60 6fbe 1366 20bf b300 03bf
00000330: 7c39 d13d 6033 27be 1c3c 843e e75a 403e
00000340: f0dd 12be 33fb 25be 1c28 e6bc 3f15 96be
00000350: 642a e23c 3a46 ca3d ae5b bdbe 6b65 2b3e
00000360: cbd7 a23c e2eb 283e af2b bfbb 2a8c a53e
00000370: 01f0 ffbe a0e0 1e3e 07f2 d7be f226 f73d
00000380: 6d4c 173d efd1 1f3e cd39 b5bd 1e6f 7bbe
00000390: 189d e63e b450 893d 826f a1be 6792 4e3d
000003a0: 09bd 2c3e cc60 b13e 7917 65be e779 a9bd
000003b0: c35a cebc 98c7 fdbc b7e6 97bd 5e42 cf3e
000003c0: 8ef7 723c 9498 95bd c00a b3be b6b8 913e
000003d0: 3ab7 7dbe b79f 9d3e 2f1b 743e 4c16 45bc
000003e0: fab9 7ebd b007 d1be 2634 2f3e f6ad d6bd
000003f0: 9385 96bd 47e7 96be 1f00 933d 3cc5 90bd
0.012490445 0.15445352 0.17083241 0.12871587 0.11231969 0.18137966 0.097494185 0.1036754
-0.08276902 0.2845879 0.05017492 -0.31921813 0.177524 -0.11923624 -0.014169495 0.05574846
0.29615676 0.101648755 0.032283194 0.2268651 -0.056771945 -0.40911663 0.22659424 -0.057678834
-0.17655991 0.31007928 0.15378398 -0.24937114 -0.15658706 -0.20816168 0.017213726 -0.051572654
-0.38091195 -0.3239971 0.13896762 0.055129826 0.18357587 0.10152606 0.09631941 0.37168765
-0.19151394 -0.03427344 -0.13807932 0.602665 0.5866407 -0.10052413 -0.066633135 0.04547709
-0.18255815 -0.14961329 -0.0053010387 0.10172741 0.11924094 -0.06683982 0.0672959 0.115516216
-0.06295766 0.26150897 -0.23228347 0.03175114 -0.3321431 0.21869202 0.38577428 -0.3325057
0.20154646 -0.054555085 -0.15243511 0.2386662 0.17221856 -0.37939623 0.069032945 0.18327764
0.24725135 -0.037520245 -0.14652464 0.28412265 0.10918782 0.22315545 -0.007854769 0.33027282
0.23505376 -0.27630362 0.33900672 -0.14448324 -0.055010334 0.32809022 -0.5504386 -0.35713103
0.15649517 0.24494345 -0.19367161 -0.0695117 0.20468718 0.102592394 0.014115516 0.05713413
-0.16620705 0.02641105 0.1364592 -0.05747842 -0.24685816 -0.10296469 -0.34643897 -0.17077757
-0.075612284 -0.32195953 0.11850644 -0.21959963 0.22534318 0.48587993 0.15369643 -0.08250382
-0.10095625 -0.24111603 -0.05141067 -0.038765106 0.11459745 0.053946458 -0.16558507 -0.09460708
-0.07840305 0.20906681 0.09023842 0.1398107 -0.013266721 -0.2558206 0.40717098 -0.07418615
-0.14282632 0.24080247 -0.19351734 0.50279725 0.21889447 -0.14636298 0.3950436 0.0833232
0.12627377 -0.20631 -0.11737639 0.09536734 0.18222271 0.20258254 0.18933074 -0.30811107
-0.26953572 -0.11559276 -0.18603285 -0.100212544 -0.22697301 -0.21589074 0.12631175 -0.3810886
-0.04933366 0.24044436 -0.033665612 -0.29297125 -0.09480687 0.3966571 0.15398708 -0.12598415
-0.3056625 -0.39152214 0.06772933 0.3067241 0.18075022 -0.11484552 0.27471128 -0.17899397
0.14439186 0.05508363 -0.66997576 -0.037742656 0.33352432 0.18416661 0.584124 0.33553684
-0.140091 0.40453824 0.36206466 -0.46868864 0.24349074 -0.26852342 0.10642231 -0.1374478
-0.1271326 0.07935754 -0.10581941 0.098191924 0.012458028 0.012848641 -0.14763603 -0.020961221
-0.14233057 0.29542497 -0.010950453 -0.47953397 0.07052713 0.10383149 -0.08750188 -0.13895057
-0.34833187 -0.2337658 -0.6265575 -0.5117294 0.102160424 -0.16328192 0.2582711 0.18784676
-0.14342475 -0.16209106 -0.028095298 -0.29313084 0.027608104 0.09876676 -0.3698401 0.16737907
0.019878289 0.16496232 -0.005834065 0.323335 -0.49987796 0.15515375 -0.4217684 0.12067975
0.03693812 0.15607427 -0.08848915 -0.24554107 0.45041728 0.06704846 -0.31530386 0.05043259
0.16868986 0.34644163 -0.22372235 -0.08275204 -0.025189763 -0.030978963 -0.07417052 0.40480322
0.014829529 -0.073044926 -0.3496914 0.28461236 -0.24776927 0.30785915 0.23838495 -0.012029242
-0.06218908 -0.40826178 0.17109737 -0.10482399 -0.07349696 -0.29473326 0.071777575 -0.070688695

bias f4 [64]
00000000: 8cd0 313c 6afe 893e ac13 6f3e 77a6 17be
00000010: db4c 183d e39f 15be 4d95 7cbe b398 c73d
00000020: 4ff8 ae3d 3861 07be 3bce 8dbc 3a82 603e
00000030: 4780 25bd 9db9 7fbe 0193 ffbd 56f0 893d
00000040: c811 19bc c419 eabd f506 e53d 7aa5 393e
00000050: 76bd 92bd 80e7 db3d f68e b0bd 866d 283e
00000060: 73a4 b13d 1845 a43d 163e 7b3e 1b91 e4bd
00000070: bed2 a83d 85e4 4bbe fb40 303e fff7 dbbd
00000080: bea7 8e3e 9007 28bd a187 733c 7de7 313e
00000090: 4585 1a3e 7b12 13be 1191 093c bb8a 423e
000000a0: 7408 463e d229 60bd 52f3 c13d 63c6 713e
000000b0: dfe8 48be a736 b43b 7663 803e 5e3c a0bc
000000c0: 8190 41be f029 263e 59e6 0a3d 1f07 a1bc
000000d0: c74d 83bc 463a ad3d d655 6e3e 283c 793e
000000e0: 3007 a0bd ec0d f9bd adc9 163c 5cb9 41be
000000f0: f01c 1d3e 9c9c 953e d7ec babd 1b87 2f3e
0.010852944 0.26951915 0.23347348 -0.14809595 0.03718267 -0.14611773 -0.24666329 0.09745922
0.08543455 -0.1322068 -0.017310252 0.21924677 -0.040405538 -0.2497315 -0.12479211 0.067352936
-0.009342618 -0.11430696 0.111829676 0.1812953 -0.07165043 0.107375145 -0.08621018 0.1644803
0.08673944 0.08020991 0.24535403 -0.11160489 0.08243321 -0.19911392 0.17212288 -0.10740661
0.27862352 -0.041022837 0.014863879 0.17373462 0.15089901 -0.14362518 0.008396403 0.18998234
0.19339162 -0.054727383 0.09470238 0.23610835 -0.19620083 0.005499679 0.25075883 -0.019560035
-0.1890278 0.16226935 0.033911083 -0.019656716 -0.016028298 0.084583804 0.23274931 0.24339354
-0.07813871 -0.121608585 0.009203357 -0.18918365 0.1534307 0.29221046 -0.09127205 0.17141382

weight f4 [64, 64]
00000000: 725d 703c 8051 e1bd 8e3e ca3d be97 1fbc
00000010: eb3f eb3c 4cc5 28bd 8ff7 0bbe 3eb1 3d3d
00000020: 59b4 5bbc f98e 3c3e 31a6 cebd 2e1c d1bd
00000030: 6730 0abe fcc0 64be 3dc9 abbe 7b7c 3e3e
00000040: ed82 fa3d b02d b93d 6eed 0a3e d473 7bbc
00000050: 8f64 02be 043b 5e3c 39a6 303e 8498 eabb
00000060: 10b4 ef3d 9758 b43d b2eb 113e e75b ffbc
00000070: 520e 81be 85d6 d63d 3dc5 e73b cb02 4ebd
00000080: 880d 1abe 73b0 6d3c 0679 4bbe f1a2 1ebe
00000090: b406 a43e eed7 823e 04b7 ac3d dfb5 13bd
000000a0: bb75 c93c 6b61 c9bd 20ab ab3e d1f2 49be
000000b0: d442 ac3e 316d b33d 357d 52be be8e 133e
000000c0: e459 283c 250d 7dbb de0b 0f3d fd11 8ebd
000000d0: 3d50 1cbe 19f0 a0be f2c6 8fbc 2f0f 913c
000000e0: 2217 20be 34f6 34bd 86e3 0d3e 5205 c6be
000000f0: 3af8 e93c 9d14 3bbb e7b9 573e 9d0d a33d
00000100: 7300 b53d cbb8 d6bd 3777 b83d 3389 e8bd
00000110: b0e1 e53c ce48 2a3d 264d 2f3e 51ed 543e
00000120: d24f 503d e983 903e 103a 153e 485a d53c
00000130: 4025 12be 1eaa 4d3c e2c6 13be 6470 e1bd
00000140: 9a7f fa3b 6b39 473e 88f7 a9bc 7ef0 84be
00000150: 964f 423e 5f6b 1e3d 9d2b 263c 763a 49be
00000160: b31e 2ebd 9a4e b73b c935 8f3d 39c0 08bd
00000170: 2194 823d 91f2 5a3e 984c 433d 948b b53c
00000180: f1d3 62bb 83d8 fabd dd46 cb3c 7280 8cbd
00000190: c814 ffbb 09c8 93bc dfb4 debc 5490 de3d
000001a0: d214 873e e2ea 2fbe f5b4 9dbd 024f 67be
000001b0: 4d12 3e3e a02d a93d e4c1 6dbe b425 93bd
000001c0: fd51 9d3d 0b2c b9bd f611 c2bd fd07 8a3d
000001d0: a3fb 213e 15e4 173e 405a 15be d492 95ba
000001e0: 0e4e 2fbe 3421 9e3e 855d ea3d 92a5 103c
000001f0: 8763 acbe d153 01bd 721e 123e c5cc acbc
00000200: ca27 103c 1bb4 183e cbff b33d eacc fe3d
00000210: 730d 3dbe 1146 09be eb04 3e3e cb8d 943d
00000220: b387 88bc 8ee1 47bf 39c2 193e 8c86 093d
00000230: 414f 1e3e 1667 a6bd 82df 543d b858 16bd
00000240: 904a a13d ea3d 1b3e fcdb 463c a738 283e
00000250: daa0 dabd b39a 0e3e a98e 98bd 4361 243d
00000260: 7b4d 2fbe ebda fe3d 947f 3a3d 618b 34bb
00000270: 3271 093e 082f a5bd 9c3b 033d e693 313e
00000280: 695c 99bc c228 f5bc 868e 883e 6c96 063e
00000290: 3e32 323e 86cb 123e 6495 543c c0b9 8c3d
000002a0: 66a6 5abe 7bfa 063e e5e1 b1be fe6b 183e
000002b0: d567 6dbe 2187 b9be a054 413e c994 33be
000002c0: 254b a73d e394 cbbc 1e98 34be b3d7 01bd
000002d0: 8742 89be 1568 8a3e bf55 b7bd 6277 003d
000002e0: c010 35bd b5a1 8f3e 9f62 9f3e b855 0abf
000002f0: f72c 98bc 0532 0dbe f906 a13e 2ba7 213d
00000300: 771f e63d 4ab5 333e d03e fcbd 97a0 85bd
00000310: cdda 70be 0daf 33be f8a5 bb3c 7fae fe3d
00000320: e6cc 5f3e 2d8a 423e 161a 1d3d 9482 b13d
00000330: 9831 013e cc57 ad3e 3cb4 053e 70e9 d5bd
00000340: 7e00 b63d f131 5dbe 98c0 dfbd b903 e13d
00000350: 69e9 943c f261 ae3d 9036 07bc 7cb7 19be
00000360: 364b 05bb 2bb7 5e3c 975a f3bd b0a9 6dbe
00000370: 59c0 fe3d a704 34be 3e4d 26be 4e55 003d
00000380: 1fde 023c 1410 9fbc 2ce3 383d 1f2f c4bc
00000390: 2ea8 74be 31e1 6ebe cb27 163e 218e 713e
000003a0: bddf 1cbe 4b32 08bf 59c6 693e 2e57 7b3e
000003b0: f108 73bd 1e8d 13be a8e1 bc3d 795b d4be
000003c0: fbb0 7ebd f9c6 0dbd 5fa0 9f3e 06b4 a23b
000003d0: ce82 a83b 231c c13e a8c6 15bd e3ec 953d
000003e0: e2d5 9f3e fd18 96bd 6ff4 5b3d 3f02 8fbe
000003f0: e9b1 963c f650 63bd 5315 9bbe 60ab 013e
0.014670717 -0.11001873 0.098752126 -0.009740768 0.028717002 -0.041203782 -0.13668655 0.04631161
-0.013409697 0.18413915 -0.10090292 -0.10210453 -0.13495027 -0.22339243 -0.3355197 0.18602173
0.12232003 0.09041917 0.13567135 -0.01534744 -0.12733673 0.013563875 0.17250909 -0.0071592946
0.11704266 0.0880596 0.14250067 -0.031171752 -0.25206238 0.10490135 0.007073073 -0.050295632
-0.15044224 0.014507401 -0.19870386 -0.15491845 0.32036364 0.25555366 0.08433345 -0.036062118
0.024592271 -0.09833034 0.33528996 -0.19721533 0.33644736 0.08761061 -0.20555575 0.1440992
0.010275338 -0.003861257 0.034923427 -0.06937025 -0.15264983 -0.3143318 -0.01755092 0.017707435
-0.15633824 -0.04418011 0.13856325 -0.38675934 0.028560746 -0.0028546222 0.2106701 0.07961581
0.08837976 -0.10484465 0.090071134 -0.11354294 0.028061718 0.04157334 0.17119274 0.20793654
0.050857373 0.2822564 0.1457293 0.026044026 -0.14272022 0.012552766 -0.14431337 -0.11007765
0.007644606 0.19455497 -0.020747915 -0.2596473 0.18975672 0.038676616 0.010142234 -0.19651207
-0.042509746 0.005594087 0.069926806 -0.033386443 0.063759096 0.21381594 0.047680467 0.022161283
-0.003461119 -0.122483276 0.024814064 -0.068604365 -0.0077844597 -0.01803972 -0.027185855 0.10867372
0.26383072 -0.17179444 -0.077005304 -0.22588733 0.18561669 0.082606554 -0.23218495 -0.07184926
0.07681654 -0.09041604 -0.09476082 0.06739805 0.15818648 0.148331 -0.14585209 -0.0011411556
-0.17119619 0.30884707 0.11443619 0.008828538 -0.33669683 -0.031574074 0.14269426 -0.021093735
0.008798549 0.14912455 0.08789023 0.12441428 -0.18462162 -0.13405634 0.18556564 0.07253607
-0.016666269 -0.78078544 0.15015496 0.03357558 0.1545992 -0.08125131 0.051970966 -0.036705703
0.0787555 0.15160337 0.012137409 0.16427861 -0.10675211 0.139262 -0.07449085 0.04013182
-0.171194 0.12444099 0.045531824 -0.0027548897 0.13422087 -0.08065611 0.03203927 0.17341575
-0.018720822 -0.029926661 0.26671237 0.13143319 0.17401978 0.1433545 0.012975071 0.068713665
-0.21352538 0.13181488 -0.34742656 0.14884946 -0.2318414 -0.36235908 0.18879938 -0.17537226
0.081686296 -0.024851268 -0.17636153 -0.031699847 -0.2680857 0.27032533 -0.08951902 0.031363852
-0.044205427 0.2805306 0.3112993 -0.54037046 -0.018576128 -0.13788612 0.31450632 0.039466064
0.1123647 0.17549625 -0.12316668 -0.06524771 -0.23520966 -0.17547245 0.022906289 0.12435626
0.21855506 0.18998022 0.038354956 0.08667484 0.12616575 0.33856046 0.13057035 -0.10444915
0.088868126 -0.21601082 -0.10925406 0.10987038 0.018177705 0.08514775 -0.008252755 -0.150114
-0.0020339019 0.013593475 -0.11882513 -0.23209262 0.12439031 -0.175799 -0.16240403 0.031331353
0.007987528 -0.019416846 0.045138523 -0.02394825 -0.2389228 -0.23328091 0.14663617 0.23589374
-0.15319724 -0.5320174 0.2282957 0.24544975 -0.0593347 -0.144093 0.09222728 -0.41476038
-0.0621805 -0.034613583 0.3117704 0.004965308 0.0051425463 0.3771678 -0.036566406 0.07320573
0.31217867 -0.07328985 0.053699907 -0.279314 0.018395381 -0.055497132 -0.30289707 0.1266303

bias f4 [64]
00000000: f0fa e3bc 8317 3d3d ffa5 063d db3b ec3c
00000010: 85de d43d c820 fc3d 2bec 223e dd81 d63d
00000020: 4705 40bd beff e5bd 19fc b53d 3ec5 a3bb
00000030: 5996 b83c 23d6 1b3e 6089 8abd 35a4 8b3c
00000040: b10e 9abd a94a de3d 7a7f 2b3e 0c8f 54bd
00000050: 8624 06be 68e0 55bd df53 c2bc 18df 09bd
00000060: 99a5 453e b64d c1bc de67 113e 6a84 093d
00000070: 4f2b 1c3e 6b36 0a3e 0977 263e 44c2 b8bc
00000080: 32d4 3c3d 399a 23bd f514 b3bd f7fb 5fbc
00000090: 8bc5 9b3c f5ea 093e b0ca bc3c 0d30 17bd
000000a0: 1ee5 6a3d 28d8 c33d 70dc 213e b57c 5a3d
000000b0: 4dd1 a7bd b4eb e43d 9c7b 10be c753 963d
000000c0: 6342 b73c 613d e53c bb71 13bd 1bcc a1bb
000000d0: 1aeb 2fbd be7f 033e 2e1f 6dbd 0605 b83d
000000e0: a844 aa3d fe4f 1b3d 7f12 10be 40d4 e2bc
000000f0: 3fb2 a0bd 4337 4bbc c641 453c ac33 c7bc
-0.027829617 0.046165 0.03287315 0.028837135 0.10394005 0.1231094 0.15910403 0.10473988
-0.046880033 -0.112304196 0.088859744 -0.0049978783 0.022532629 0.15218405 -0.067644835 0.017046073
-0.075223334 0.10854084 0.16747847 -0.051894233 -0.1309987 -0.052215964 -0.023721633 -0.033660024
0.19301452 -0.023596626 0.14199778 0.033573546 0.15250896 0.13497321 0.16256346 -0.02255357
0.046100803 -0.039942 -0.087442316 -0.013670913 0.019015094 0.13468535 0.023045868 -0.03691106
0.05734741 0.09562713 0.15806746 0.053341586 -0.08194218 0.11177769 -0.14109653 0.07340198
0.022370523 0.02798337 -0.035997134 -0.0049376613 -0.04294882 0.12841699 -0.057891063 0.08985333
0.083138764 0.037918083 -0.14069556 -0.0276891 -0.07846498 -0.012403312 0.012039607 -0.024316631

weight f4 [8, 64]
00000000: b91b 11be e3e6 273a 5d4b 203e e352 153e
00000010: 4c40 ea3d aaee 5e3d 1769 86be b12d d6bd
00000020: afd1 18bf dd41 95be bb2c 4abb 0e5a 78bd
00000030: 6f88 74be 4d1d 043e 68e4 e1be dff4 43bd
00000040: 756b 21be 65e1 453e 6631 68be 964a bb3e
00000050: 70b1 423e cf0b e5be 14d3 793e 1262 9d3d
00000060: 297d 83bd 73ff 02be 2f0a 9b3d ff81 cebd
00000070: ed09 913c bd8a 373e 43d1 103e 5fc4 c2bd
00000080: b789 e7be 2d5f 06bd 3529 413e d0a3 fabd
00000090: 4dac 9dbe a3e0 303e fb13 e03e be33 683e
000000a0: 8c34 a73e 372b c0be ab1a edbd eb72 50be
000000b0: bc52 68bd 05eb 583d a338 453d 92ed b53d
000000c0: 9c08 433e 80ec 8a3d 31f8 073d 94f0 18be
000000d0: 4a1e 523e 3cca 54bd 9844 b63c da0b 1dbd
000000e0: 76ae 553d 690e 03bd ff74 eebb 20d7 cf3d
000000f0: bd86 35bd cce8 9b3d 4dc2 04be 8e08 273d
00000100: fc47 16be 7dba e0bd 40f9 08bd c00b 683e
00000110: 59f3 913c 8c79 8d3e 9399 2abc 0d57 87be
00000120: e326 64bd d46e 31be a7be 34be 4bd1 0fbe
00000130: 55d1 3a3e 144b 003e 4882 65be c932 98bd
00000140: 82c8 19bd 845e a2bc aee3 5a3e b91b 7ebe
00000150: c937 a3bc f2ef 473e 8461 523d 7376 1e3e
00000160: 7d81 813e c71f 22be c341 7a3e 4ee4 153d
00000170: 6d56 5eba f7c2 6e3e 8549 c33d de23 ff3c
00000180: 826d 453c 7e2f c7bd 8402 0abd da55 523e
00000190: 6b54 a1be f4ea 113e 4b33 20bd 9057 0ebf
000001a0: 2dbb 65be ba6b 19be e9e4 e73d 3253 4abe
000001b0: 8c1e 39be 8128 603e 5088 19be f4ec 43bd
000001c0: 6a73 933c 07e5 fdbd f8a1 4f3d 1a88 633e
000001d0: 7956 c2bd c0db 023d 82c8 3bbe a5a2 56be
000001e0: 36e9 663d 8c7e 80bd 6c48 0d3d f070 0abd
000001f0: 983f 0f3d c51b ddbd 401b 633d 9c9d da3d
00000200: 47ea 4dbb c7b8 0e3d 3cbf c73d c544 a73e
00000210: c60e 383c 4d47 b6bc dca3 7f3e aeba 843e
00000220: 85d1 7cbe 6b3b 283e 26d6 80ba 2a5d 15bd
00000230: 4e6b 853d ae28 bdbc 70da 95be f708 c9bd
00000240: 36af 5fbc 94d2 573e 3302 49be 18b8 3cbd
00000250: 830f b73d 041b 94bd f5c0 e83d 4420 8d3e
00000260: 6ed5 c93d d66e aebd 84d4 cabc c979 7f3d
00000270: ca08 26be d1fd 613e a451 283e 26bd 0cbd
00000280: 7619 e3be 8d52 b5be 5193 75be 6b0f a63d
00000290: f53c 35be 7a20 03be 67c0 213e bf74 bdbe
000002a0: 95b9 b03e 1d36 bdbe d7db 4c3e 98d8 5abc
000002b0: 4483 6bbc efda 6dbe 34b6 83bd c49f a23e
000002c0: 8f82 dcbd 44d4 163e 4490 723e 8d34 6f3e
000002d0: cef3 6e3e db35 eebe baad 19bd 1202 17bd
000002e0: 1866 a13d 07cf e4bc 3cff 6cbd aabd 783c
000002f0: e04f 023e 1720 373e 9229 75be 6a05 02be
00000300: 298a 053e 49c7 343e 6cb1 adbd b955 653d
00000310: bf01 9fbd 1c6d 7abd 6a40 fcbb 687c 02be
00000320: 5344 273e 4de8 d63e 65ba 993e d194 593d
00000330: 30b0 a3bd 09aa 3dbd eaa5 eabd 32bb 393c
00000340: aa34 07bd 7867 eabd 204d 3cbd 8cc3 9ebe
00000350: a582 0d3e 34e1 94be 5294 343d 6d5f 2cbe
00000360: 8546 ecbd 664c e03d 3f53 54bd 3e5b d13d
00000370: d44f 26be 1f9e 9c3e 8087 dfbd 7619 c43d
00000380: 4748 07be 908c aabe 8861 bfbd a3d4 203e
00000390: e8b8 8fbc 455b e7b9 3ae3 7d3e 147a a4be
000003a0: 9959 9e3e 65a6 e43d 58db 90bd a536 a13d
000003b0: 5dc6 e6bd 831c 883e e9f0 4cbc 2fb3 b43c
000003c0: 97b3 7f3d 6cf7 d0be 3400 58be a979 443e
000003d0: aa31 a13d 9ad9 86be b1c4 123e 1668 c4bd
000003e0: d31b 4fbe 346d c7bd 0b9e bebd 7a60 2ebe
000003f0: 56f5 97bc 149c 323e a430 4fbe dfd5 213e
-0.14170732 0.0006404949 0.15653749 0.145824 0.11438045 0.054426827 -0.26252052 -0.10457934
-0.5969495 -0.29151812 -0.0030849415 -0.060632758 -0.2388017 0.12901802 -0.44119573 -0.04784095
-0.15763648 0.19324262 -0.22675094 0.36580342 0.19013 -0.44735572 0.24396926 0.07684721
-0.06420357 -0.12792759 0.07570302 -0.100833885 0.017704928 0.17924018 0.14142327 -0.09510111
-0.45222256 -0.03280561 0.18863375 -0.12238276 -0.30795518 0.17273192 0.43765244 0.22675988
0.32657278 -0.3753297 -0.11577352 -0.20356338 -0.056719527 0.052958507 0.048149716 0.088832036
0.19046253 0.0678339 0.03319568 -0.14935523 0.20519367 -0.05195068 0.022249505 -0.03834138
0.052168332 -0.031996164 -0.0072771306 0.10148454 -0.04431795 0.07612762 -0.12964745 0.040779643
-0.14675897 -0.1097307 -0.03344083 0.22660732 0.017816233 0.27631795 -0.0104125915 -0.26433602
-0.055701148 -0.17327434 -0.17650853 -0.14044683 0.18243916 0.1252864 -0.2241298 -0.074315615
-0.037544735 -0.01982046 0.21375915 -0.24815263 -0.019924061 0.19525126 0.05136253 0.15474872
0.25294104 -0.15832435 0.24439149 0.03659468 -0.00084815064 0.2331656 0.09535507 0.031145032
0.0120500345 -0.09725855 -0.033693805 0.20540562 -0.31509718 0.14249784 -0.039111417 -0.5560236
-0.22434683 -0.149825 0.11322958 -0.19758299 -0.18078059 0.21890451 -0.14993405 -0.047833398
0.01799937 -0.12397199 0.050691575 0.22219887 -0.094891496 0.03194785 -0.18338206 -0.20960481
0.05637475 -0.06274137 0.034492895 -0.03379911 0.034972757 -0.10796312 0.05544591 0.10674593
-0.0031420158 0.034844186 0.09753272 0.32669654 0.011233991 -0.022250796 0.24964851 0.25923675
-0.246893 0.16428916 -0.0009829446 -0.0364658 0.06514607 -0.023090687 -0.29268217 -0.09816163
-0.013652613 0.21076423 -0.19629745 -0.046074003 0.089385055 -0.07231715 0.11364929 0.2756368
0.098551616 -0.08517234 -0.024759538 0.062372003 -0.1621429 0.2206948 0.16437393 -0.034360074
-0.44355363 -0.35414544 -0.23981978 0.081084095 -0.17699035 -0.12805358 0.15796052 -0.37003133
0.34516588 -0.36955348 0.20005737 -0.013357304 -0.014374558 -0.23228048 -0.06431237 0.31762516
-0.107670896 0.1472941 0.23687845 0.2335989 0.23335192 -0.46525463 -0.037519194 -0.03686721
0.07880801 -0.02793075 -0.057860598 0.015181938 0.12725782 0.17883335 -0.23941639 -0.12697378
0.13040985 0.17654146 -0.08481106 0.055989955 -0.07764005 -0.06113921 -0.0076981084 -0.1274277
0.16334657 0.41974106 0.3002502 0.053120438 -0.079925895 -0.046304736 -0.11457427 0.011336135
-0.03300921 -0.11445516 -0.04597199 -0.31008565 0.13819368 -0.29078066 0.04408676 -0.16833277
-0.11536888 0.10952072 -0.051837202 0.10222481 -0.1624139 0.30589387 -0.109145164 0.09575169
-0.13211165 -0.33310366 -0.093447745 0.15706114 -0.017544225 -0.00044127755 0.24793711 -0.32124388
0.30927733 0.1116455 -0.070730865 0.07871751 -0.112683035 0.26584253 -0.012508609 0.022058098
0.06242713 -0.40813768 -0.21093827 0.19187035 0.07870801 -0.26337892 0.14332844 -0.09590165
-0.20225458 -0.09737626 -0.09307488 -0.1702899 -0.018549602 0.17442352 -0.20233399 0.15804242

bias f4 [8]
00000000: 1f14 93bc 2b0b 9f3d 91c1 08bd 19bd 773d
00000010: ff76 523d a995 d33d 4aee 7c3d 9512 7e3d
-0.01795393 0.07765802 -0.033387724 0.060483072 0.051383015 0.1033128 0.061750688 0.06202944
